#loc = loc("/usr/local/lib/python3.12/dist-packages/vllm/attention/ops/triton_unified_attention.py":296:0)
#loc1 = loc(unknown)
#loc6 = loc("/usr/local/lib/python3.12/dist-packages/vllm/attention/ops/triton_unified_attention.py":344:36)
#loc113 = loc("/usr/local/lib/python3.12/dist-packages/vllm/attention/ops/triton_unified_attention.py":496:35)
#loc122 = loc("/usr/local/lib/python3.12/dist-packages/vllm/attention/ops/triton_unified_attention.py":505:21)
#loc154 = loc(callsite(#loc1 at #loc6))
#loc171 = loc(callsite(#loc1 at #loc113))
#loc174 = loc(callsite(#loc1 at #loc122))
module {
  tt.func public @kernel_unified_attention_3d(%arg0: !tt.ptr<f32> {tt.divisibility = 16 : i32, tt.pointer_range = 32 : i32} loc("/usr/local/lib/python3.12/dist-packages/vllm/attention/ops/triton_unified_attention.py":296:0), %arg1: !tt.ptr<f32> {tt.divisibility = 16 : i32, tt.pointer_range = 32 : i32} loc("/usr/local/lib/python3.12/dist-packages/vllm/attention/ops/triton_unified_attention.py":296:0), %arg2: !tt.ptr<f32> {tt.divisibility = 16 : i32, tt.pointer_range = 32 : i32} loc("/usr/local/lib/python3.12/dist-packages/vllm/attention/ops/triton_unified_attention.py":296:0), %arg3: !tt.ptr<bf16> {tt.divisibility = 16 : i32, tt.pointer_range = 32 : i32} loc("/usr/local/lib/python3.12/dist-packages/vllm/attention/ops/triton_unified_attention.py":296:0), %arg4: !tt.ptr<bf16> {tt.divisibility = 16 : i32, tt.pointer_range = 32 : i32} loc("/usr/local/lib/python3.12/dist-packages/vllm/attention/ops/triton_unified_attention.py":296:0), %arg5: !tt.ptr<bf16> {tt.divisibility = 16 : i32, tt.pointer_range = 32 : i32} loc("/usr/local/lib/python3.12/dist-packages/vllm/attention/ops/triton_unified_attention.py":296:0), %arg6: !tt.ptr<i32> {tt.divisibility = 16 : i32, tt.pointer_range = 32 : i32} loc("/usr/local/lib/python3.12/dist-packages/vllm/attention/ops/triton_unified_attention.py":296:0), %arg7: !tt.ptr<i32> {tt.divisibility = 16 : i32, tt.pointer_range = 32 : i32} loc("/usr/local/lib/python3.12/dist-packages/vllm/attention/ops/triton_unified_attention.py":296:0), %arg8: f32 loc("/usr/local/lib/python3.12/dist-packages/vllm/attention/ops/triton_unified_attention.py":296:0), %arg9: !tt.ptr<f32> {tt.divisibility = 16 : i32, tt.pointer_range = 32 : i32} loc("/usr/local/lib/python3.12/dist-packages/vllm/attention/ops/triton_unified_attention.py":296:0), %arg10: !tt.ptr<f32> {tt.divisibility = 16 : i32, tt.pointer_range = 32 : i32} loc("/usr/local/lib/python3.12/dist-packages/vllm/attention/ops/triton_unified_attention.py":296:0), %arg11: i32 {tt.divisibility = 16 : i32} loc("/usr/local/lib/python3.12/dist-packages/vllm/attention/ops/triton_unified_attention.py":296:0), %arg12: i64 {tt.divisibility = 16 : i32} loc("/usr/local/lib/python3.12/dist-packages/vllm/attention/ops/triton_unified_attention.py":296:0), %arg13: i64 {tt.divisibility = 16 : i32} loc("/usr/local/lib/python3.12/dist-packages/vllm/attention/ops/triton_unified_attention.py":296:0), %arg14: i64 {tt.divisibility = 16 : i32} loc("/usr/local/lib/python3.12/dist-packages/vllm/attention/ops/triton_unified_attention.py":296:0), %arg15: i64 {tt.divisibility = 16 : i32} loc("/usr/local/lib/python3.12/dist-packages/vllm/attention/ops/triton_unified_attention.py":296:0), %arg16: i64 {tt.divisibility = 16 : i32} loc("/usr/local/lib/python3.12/dist-packages/vllm/attention/ops/triton_unified_attention.py":296:0), %arg17: i64 {tt.divisibility = 16 : i32} loc("/usr/local/lib/python3.12/dist-packages/vllm/attention/ops/triton_unified_attention.py":296:0), %arg18: i64 {tt.divisibility = 16 : i32} loc("/usr/local/lib/python3.12/dist-packages/vllm/attention/ops/triton_unified_attention.py":296:0), %arg19: i64 {tt.divisibility = 16 : i32} loc("/usr/local/lib/python3.12/dist-packages/vllm/attention/ops/triton_unified_attention.py":296:0), %arg20: i64 {tt.divisibility = 16 : i32} loc("/usr/local/lib/python3.12/dist-packages/vllm/attention/ops/triton_unified_attention.py":296:0), %arg21: i64 {tt.divisibility = 16 : i32} loc("/usr/local/lib/python3.12/dist-packages/vllm/attention/ops/triton_unified_attention.py":296:0), %arg22: !tt.ptr<i32> {tt.divisibility = 16 : i32, tt.pointer_range = 32 : i32} loc("/usr/local/lib/python3.12/dist-packages/vllm/attention/ops/triton_unified_attention.py":296:0)) attributes {noinline = false} {
    %c255_i32 = arith.constant 255 : i32 loc(#loc1)
    %c15_i32 = arith.constant 15 : i32 loc(#loc1)
    %c0_i32 = arith.constant 0 : i32 loc(#loc1)
    %c2_i32 = arith.constant 2 : i32 loc(#loc1)
    %cst = arith.constant dense<0.000000e+00> : tensor<128x16xbf16> loc(#loc1)
    %cst_0 = arith.constant dense<0.000000e+00> : tensor<16x128xbf16> loc(#loc1)
    %c256_i32 = arith.constant 256 : i32 loc(#loc1)
    %cst_1 = arith.constant dense<16> : tensor<16xi32> loc(#loc1)
    %cst_2 = arith.constant dense<512> : tensor<16xi64> loc(#loc1)
    %cst_3 = arith.constant dense<2048> : tensor<16x1xi32> loc(#loc1)
    %cst_4 = arith.constant dense<65536> : tensor<16x1xi64> loc(#loc1)
    %cst_5 = arith.constant dense<0.000000e+00> : tensor<16xf32> loc(#loc1)
    %cst_6 = arith.constant dense<0xFF800000> : tensor<16x16xf32> loc(#loc1)
    %cst_7 = arith.constant dense<0.000000e+00> : tensor<16x16xf32> loc(#loc1)
    %cst_8 = arith.constant dense<1> : tensor<16x1xi32> loc(#loc1)
    %cst_9 = arith.constant dense<1.000000e+00> : tensor<16xf32> loc(#loc1)
    %cst_10 = arith.constant dense<0xFF800000> : tensor<16xf32> loc(#loc1)
    %cst_11 = arith.constant dense<0.000000e+00> : tensor<16x128xf32> loc(#loc1)
    %cst_12 = arith.constant dense<32> : tensor<16xi32> loc(#loc1)
    %cst_13 = arith.constant dense<0> : tensor<16xi32> loc(#loc1)
    %cst_14 = arith.constant dense<1> : tensor<16xi32> loc(#loc1)
    %cst_15 = arith.constant dense<0> : tensor<128xi32> loc(#loc1)
    %cst_16 = arith.constant dense<1> : tensor<128xi32> loc(#loc1)
    %cst_17 = arith.constant dense<128> : tensor<128xi32> loc(#loc1)
    %c128_i32 = arith.constant 128 : i32 loc(#loc1)
    %cst_18 = arith.constant dense<4> : tensor<16xi32> loc(#loc1)
    %c16_i32 = arith.constant 16 : i32 loc(#loc1)
    %c1_i32 = arith.constant 1 : i32 loc(#loc1)
    %c4_i32 = arith.constant 4 : i32 loc(#loc1)
    %0 = tt.get_program_id x : i32 loc(#loc2)
    %1 = tt.get_program_id y : i32 loc(#loc3)
    %2 = tt.get_program_id z : i32 loc(#loc4)
    %3:2 = scf.while (%arg23 = %c0_i32, %arg24 = %c1_i32) : (i32, i32) -> (i32, i32) {
      %130 = arith.cmpi slt, %arg23, %arg24 : i32 loc(#loc153)
      scf.condition(%130) %arg23, %arg24 : i32, i32 loc(#loc153)
    } do {
    ^bb0(%arg23: i32 loc(callsite(#loc1 at #loc6)), %arg24: i32 loc(callsite(#loc1 at #loc6))):
      %130 = arith.addi %arg23, %arg24 : i32 loc(#loc155)
      %131 = arith.divsi %130, %c2_i32 : i32 loc(#loc156)
      %132 = tt.addptr %arg22, %131 : !tt.ptr<i32>, i32 loc(#loc157)
      %133 = tt.load %132 : !tt.ptr<i32> loc(#loc158)
      %134 = arith.divsi %133, %c4_i32 : i32 loc(#loc159)
      %135 = arith.addi %134, %131 : i32 loc(#loc160)
      %136 = arith.cmpi sle, %135, %0 : i32 loc(#loc161)
      %137 = arith.select %136, %arg24, %131 : i32 loc(#loc162)
      %138 = scf.if %136 -> (i32) {
        %139 = arith.addi %131, %c1_i32 : i32 loc(#loc163)
        scf.yield %139 : i32 loc(#loc163)
      } else {
        scf.yield %arg23 : i32 loc(#loc154)
      } loc(#loc162)
      scf.yield %138, %137 : i32, i32 loc(#loc164)
    } loc(#loc152)
    %4 = arith.subi %3#0, %c1_i32 : i32 loc(#loc165)
    %5 = tt.addptr %arg22, %4 : !tt.ptr<i32>, i32 loc(#loc19)
    %6 = tt.load %5 : !tt.ptr<i32> loc(#loc20)
    %7 = arith.divsi %6, %c4_i32 : i32 loc(#loc21)
    %8 = arith.addi %7, %4 : i32 loc(#loc22)
    %9 = arith.subi %0, %8 : i32 loc(#loc23)
    %10 = tt.addptr %5, %c1_i32 : !tt.ptr<i32>, i32 loc(#loc24)
    %11 = tt.load %10 : !tt.ptr<i32> loc(#loc25)
    %12 = arith.subi %11, %6 : i32 loc(#loc26)
    %13 = arith.muli %9, %c4_i32 : i32 loc(#loc27)
    %14 = arith.cmpi sge, %13, %12 : i32 loc(#loc28)
    cf.cond_br %14, ^bb1, ^bb2 loc(#loc28)
  ^bb1:  // 2 preds: ^bb0, ^bb2
    tt.return loc(#loc29)
  ^bb2:  // pred: ^bb0
    %15 = tt.addptr %arg7, %4 : !tt.ptr<i32>, i32 loc(#loc30)
    %16 = tt.load %15 : !tt.ptr<i32> loc(#loc31)
    %17 = arith.addi %16, %c255_i32 : i32 loc(#loc166)
    %18 = arith.divsi %17, %c256_i32 : i32 loc(#loc167)
    %19 = arith.muli %2, %18 : i32 loc(#loc35)
    %20 = arith.muli %19, %c16_i32 : i32 loc(#loc36)
    %21 = arith.cmpi sge, %20, %16 : i32 loc(#loc37)
    cf.cond_br %21, ^bb1, ^bb3 loc(#loc37)
  ^bb3:  // pred: ^bb2
    %22 = tt.make_range {end = 16 : i32, start = 0 : i32} : tensor<16xi32> loc(#loc38)
    %23 = tt.make_range {end = 128 : i32, start = 0 : i32} : tensor<128xi32> loc(#loc39)
    %24 = arith.divsi %22, %cst_18 : tensor<16xi32> loc(#loc40)
    %25 = tt.splat %13 : i32 -> tensor<16xi32> loc(#loc41)
    %26 = arith.addi %25, %24 : tensor<16xi32> loc(#loc41)
    %27 = tt.splat %6 : i32 -> tensor<16xi32> loc(#loc42)
    %28 = arith.addi %27, %26 : tensor<16xi32> loc(#loc42)
    %29 = arith.muli %1, %c4_i32 : i32 loc(#loc43)
    %30 = arith.remsi %22, %cst_18 : tensor<16xi32> loc(#loc44)
    %31 = tt.splat %29 : i32 -> tensor<16xi32> loc(#loc45)
    %32 = arith.addi %31, %30 : tensor<16xi32> loc(#loc45)
    %33 = tt.expand_dims %28 {axis = 1 : i32} : tensor<16xi32> -> tensor<16x1xi32> loc(#loc46)
    %34 = arith.extsi %33 : tensor<16x1xi32> to tensor<16x1xi64> loc(#loc47)
    %35 = tt.splat %arg13 : i64 -> tensor<16x1xi64> loc(#loc47)
    %36 = arith.muli %34, %35 : tensor<16x1xi64> loc(#loc47)
    %37 = tt.expand_dims %32 {axis = 1 : i32} : tensor<16xi32> -> tensor<16x1xi32> loc(#loc48)
    %38 = arith.extsi %37 : tensor<16x1xi32> to tensor<16x1xi64> loc(#loc49)
    %39 = tt.splat %arg14 : i64 -> tensor<16x1xi64> loc(#loc49)
    %40 = arith.muli %38, %39 : tensor<16x1xi64> loc(#loc49)
    %41 = arith.addi %36, %40 : tensor<16x1xi64> loc(#loc50)
    %42 = tt.expand_dims %23 {axis = 0 : i32} : tensor<128xi32> -> tensor<1x128xi32> loc(#loc51)
    %43 = arith.extsi %42 : tensor<1x128xi32> to tensor<1x128xi64> loc(#loc52)
    %44 = tt.broadcast %41 : tensor<16x1xi64> -> tensor<16x128xi64> loc(#loc52)
    %45 = tt.broadcast %43 : tensor<1x128xi64> -> tensor<16x128xi64> loc(#loc52)
    %46 = arith.addi %44, %45 : tensor<16x128xi64> loc(#loc52)
    %47 = arith.cmpi slt, %23, %cst_17 : tensor<128xi32> loc(#loc53)
    %48 = arith.select %47, %cst_16, %cst_15 : tensor<128xi1>, tensor<128xi32> loc(#loc54)
    %49 = arith.cmpi ne, %48, %cst_15 : tensor<128xi32> loc(#loc55)
    %50 = tt.splat %12 : i32 -> tensor<16xi32> loc(#loc56)
    %51 = arith.cmpi slt, %26, %50 : tensor<16xi32> loc(#loc56)
    %52 = arith.select %51, %cst_14, %cst_13 : tensor<16xi1>, tensor<16xi32> loc(#loc57)
    %53 = arith.cmpi ne, %52, %cst_13 : tensor<16xi32> loc(#loc58)
    %54 = arith.cmpi slt, %32, %cst_12 : tensor<16xi32> loc(#loc59)
    %55 = arith.select %54, %cst_14, %cst_13 : tensor<16xi1>, tensor<16xi32> loc(#loc60)
    %56 = arith.cmpi ne, %55, %cst_13 : tensor<16xi32> loc(#loc61)
    %57 = tt.expand_dims %49 {axis = 0 : i32} : tensor<128xi1> -> tensor<1x128xi1> loc(#loc62)
    %58 = tt.expand_dims %53 {axis = 1 : i32} : tensor<16xi1> -> tensor<16x1xi1> loc(#loc63)
    %59 = tt.broadcast %57 : tensor<1x128xi1> -> tensor<16x128xi1> loc(#loc64)
    %60 = tt.broadcast %58 : tensor<16x1xi1> -> tensor<16x128xi1> loc(#loc64)
    %61 = arith.andi %59, %60 : tensor<16x128xi1> loc(#loc64)
    %62 = tt.expand_dims %56 {axis = 1 : i32} : tensor<16xi1> -> tensor<16x1xi1> loc(#loc65)
    %63 = tt.broadcast %62 : tensor<16x1xi1> -> tensor<16x128xi1> loc(#loc66)
    %64 = arith.andi %61, %63 : tensor<16x128xi1> loc(#loc66)
    %65 = tt.splat %arg3 : !tt.ptr<bf16> -> tensor<16x128x!tt.ptr<bf16>> loc(#loc67)
    %66 = tt.addptr %65, %46 : tensor<16x128x!tt.ptr<bf16>>, tensor<16x128xi64> loc(#loc67)
    %67 = tt.load %66, %64, %cst_0 : tensor<16x128x!tt.ptr<bf16>> loc(#loc68)
    %68 = arith.extsi %4 : i32 to i64 loc(#loc69)
    %69 = arith.muli %68, %arg12 : i64 loc(#loc69)
    %70 = arith.subi %16, %12 : i32 loc(#loc70)
    %71 = arith.addi %16, %c15_i32 : i32 loc(#loc168)
    %72 = arith.divsi %71, %c16_i32 : i32 loc(#loc169)
    %73 = arith.addi %2, %c1_i32 : i32 loc(#loc72)
    %74 = arith.muli %73, %18 : i32 loc(#loc73)
    %75 = arith.minsi %74, %72 : i32 loc(#loc74)
    %76 = tt.addptr %arg6, %69 : !tt.ptr<i32>, i64 loc(#loc75)
    %77 = arith.extsi %1 : i32 to i64 loc(#loc76)
    %78 = arith.muli %77, %arg21 : i64 loc(#loc76)
    %79 = tt.expand_dims %22 {axis = 1 : i32} : tensor<16xi32> -> tensor<16x1xi32> loc(#loc77)
    %80 = arith.extsi %79 : tensor<16x1xi32> to tensor<16x1xi64> loc(#loc78)
    %81 = tt.splat %arg20 : i64 -> tensor<16x1xi64> loc(#loc78)
    %82 = arith.muli %80, %81 : tensor<16x1xi64> loc(#loc78)
    %83 = tt.broadcast %82 : tensor<16x1xi64> -> tensor<16x128xi64> loc(#loc79)
    %84 = arith.muli %77, %arg18 : i64 loc(#loc80)
    %85 = tt.expand_dims %23 {axis = 1 : i32} : tensor<128xi32> -> tensor<128x1xi32> loc(#loc81)
    %86 = arith.extsi %85 : tensor<128x1xi32> to tensor<128x1xi64> loc(#loc82)
    %87 = tt.expand_dims %22 {axis = 0 : i32} : tensor<16xi32> -> tensor<1x16xi32> loc(#loc83)
    %88 = arith.extsi %87 : tensor<1x16xi32> to tensor<1x16xi64> loc(#loc84)
    %89 = tt.splat %arg17 : i64 -> tensor<1x16xi64> loc(#loc84)
    %90 = arith.muli %88, %89 : tensor<1x16xi64> loc(#loc84)
    %91 = tt.broadcast %90 : tensor<1x16xi64> -> tensor<128x16xi64> loc(#loc85)
    %92 = tt.expand_dims %49 {axis = 1 : i32} : tensor<128xi1> -> tensor<128x1xi1> loc(#loc86)
    %93 = tt.splat %arg4 : !tt.ptr<bf16> -> tensor<128x16x!tt.ptr<bf16>> loc(#loc87)
    %94 = tt.broadcast %92 : tensor<128x1xi1> -> tensor<128x16xi1> loc(#loc88)
    %95 = tt.splat %arg5 : !tt.ptr<bf16> -> tensor<16x128x!tt.ptr<bf16>> loc(#loc89)
    %96 = tt.expand_dims %26 {axis = 1 : i32} : tensor<16xi32> -> tensor<16x1xi32> loc(#loc90)
    %97 = tt.splat %70 : i32 -> tensor<16x1xi32> loc(#loc91)
    %98 = arith.addi %97, %96 : tensor<16x1xi32> loc(#loc91)
    %99 = arith.addi %98, %cst_8 : tensor<16x1xi32> loc(#loc92)
    %100 = tt.broadcast %99 : tensor<16x1xi32> -> tensor<16x16xi32> loc(#loc93)
    %101 = tt.splat %arg8 : f32 -> tensor<16x16xf32> loc(#loc94)
    %102 = arith.andi %62, %58 : tensor<16x1xi1> loc(#loc95)
    %103 = tt.broadcast %102 : tensor<16x1xi1> -> tensor<16x16xi1> loc(#loc96)
    %104:3 = scf.for %arg23 = %19 to %75 step %c1_i32 iter_args(%arg24 = %cst_11, %arg25 = %cst_9, %arg26 = %cst_10) -> (tensor<16x128xf32>, tensor<16xf32>, tensor<16xf32>)  : i32 {
      %130 = tt.addptr %76, %arg23 : !tt.ptr<i32>, i32 loc(#loc98)
      %131 = tt.load %130 : !tt.ptr<i32> loc(#loc99)
      %132 = arith.extsi %131 : i32 to i64 loc(#loc100)
      %133 = arith.muli %132, %arg19 : i64 loc(#loc100)
      %134 = arith.addi %133, %78 : i64 loc(#loc101)
      %135 = tt.splat %134 : i64 -> tensor<1x128xi64> loc(#loc102)
      %136 = arith.addi %135, %43 : tensor<1x128xi64> loc(#loc102)
      %137 = tt.broadcast %136 : tensor<1x128xi64> -> tensor<16x128xi64> loc(#loc79)
      %138 = arith.addi %137, %83 : tensor<16x128xi64> loc(#loc79)
      %139 = arith.muli %132, %arg16 : i64 loc(#loc103)
      %140 = arith.addi %139, %84 : i64 loc(#loc104)
      %141 = tt.splat %140 : i64 -> tensor<128x1xi64> loc(#loc82)
      %142 = arith.addi %141, %86 : tensor<128x1xi64> loc(#loc82)
      %143 = tt.broadcast %142 : tensor<128x1xi64> -> tensor<128x16xi64> loc(#loc85)
      %144 = arith.addi %143, %91 : tensor<128x16xi64> loc(#loc85)
      %145 = tt.addptr %93, %144 : tensor<128x16x!tt.ptr<bf16>>, tensor<128x16xi64> loc(#loc87)
      %146 = tt.load %145, %94, %cst : tensor<128x16x!tt.ptr<bf16>> loc(#loc88)
      %147 = tt.addptr %95, %138 : tensor<16x128x!tt.ptr<bf16>>, tensor<16x128xi64> loc(#loc89)
      %148 = tt.load %147, %59, %cst_0 : tensor<16x128x!tt.ptr<bf16>> loc(#loc105)
      %149 = arith.muli %arg23, %c16_i32 : i32 loc(#loc106)
      %150 = tt.splat %149 : i32 -> tensor<16xi32> loc(#loc107)
      %151 = arith.addi %150, %22 : tensor<16xi32> loc(#loc107)
      %152 = tt.expand_dims %151 {axis = 0 : i32} : tensor<16xi32> -> tensor<1x16xi32> loc(#loc108)
      %153 = tt.broadcast %152 : tensor<1x16xi32> -> tensor<16x16xi32> loc(#loc93)
      %154 = arith.cmpi slt, %153, %100 : tensor<16x16xi32> loc(#loc93)
      %155 = tt.dot %67, %146, %cst_7 : tensor<16x128xbf16> * tensor<128x16xbf16> -> tensor<16x16xf32> loc(#loc109)
      %156 = arith.mulf %101, %155 : tensor<16x16xf32> loc(#loc94)
      %157 = arith.addf %156, %cst_7 : tensor<16x16xf32> loc(#loc110)
      %158 = arith.andi %103, %154 : tensor<16x16xi1> loc(#loc96)
      %159 = arith.select %158, %157, %cst_6 : tensor<16x16xi1>, tensor<16x16xf32> loc(#loc111)
      %160 = "tt.reduce"(%159) <{axis = 1 : i32}> ({
      ^bb0(%arg27: f32 loc(callsite(#loc1 at #loc113)), %arg28: f32 loc(callsite(#loc1 at #loc113))):
        %178 = arith.maxnumf %arg27, %arg28 : f32 loc(#loc176)
        tt.reduce.return %178 : f32 loc(#loc170)
      }) : (tensor<16x16xf32>) -> tensor<16xf32> loc(#loc170)
      %161 = arith.maxnumf %arg26, %160 : tensor<16xf32> loc(#loc115)
      %162 = arith.cmpf ogt, %161, %cst_10 : tensor<16xf32> loc(#loc116)
      %163 = arith.select %162, %161, %cst_5 : tensor<16xi1>, tensor<16xf32> loc(#loc117)
      %164 = tt.expand_dims %163 {axis = 1 : i32} : tensor<16xf32> -> tensor<16x1xf32> loc(#loc118)
      %165 = tt.broadcast %164 : tensor<16x1xf32> -> tensor<16x16xf32> loc(#loc119)
      %166 = arith.subf %159, %165 : tensor<16x16xf32> loc(#loc119)
      %167 = math.exp %166 : tensor<16x16xf32> loc(#loc120)
      %168 = "tt.reduce"(%167) <{axis = 1 : i32}> ({
      ^bb0(%arg27: f32 loc(callsite(#loc1 at #loc122)), %arg28: f32 loc(callsite(#loc1 at #loc122))):
        %178 = arith.addf %arg27, %arg28 : f32 loc(#loc177)
        tt.reduce.return %178 : f32 loc(#loc173)
      }) : (tensor<16x16xf32>) -> tensor<16xf32> loc(#loc173)
      %169 = arith.subf %arg26, %163 : tensor<16xf32> loc(#loc124)
      %170 = math.exp %169 : tensor<16xf32> loc(#loc125)
      %171 = tt.expand_dims %170 {axis = 1 : i32} : tensor<16xf32> -> tensor<16x1xf32> loc(#loc126)
      %172 = tt.broadcast %171 : tensor<16x1xf32> -> tensor<16x128xf32> loc(#loc127)
      %173 = arith.mulf %arg24, %172 : tensor<16x128xf32> loc(#loc127)
      %174 = arith.mulf %arg25, %170 : tensor<16xf32> loc(#loc128)
      %175 = arith.addf %174, %168 : tensor<16xf32> loc(#loc129)
      %176 = arith.truncf %167 : tensor<16x16xf32> to tensor<16x16xbf16> loc(#loc130)
      %177 = tt.dot %176, %148, %173 : tensor<16x16xbf16> * tensor<16x128xbf16> -> tensor<16x128xf32> loc(#loc131)
      scf.yield %177, %175, %163 : tensor<16x128xf32>, tensor<16xf32>, tensor<16xf32> loc(#loc132)
    } loc(#loc97)
    %105 = arith.muli %34, %cst_4 : tensor<16x1xi64> loc(#loc133)
    %106 = arith.muli %37, %cst_3 : tensor<16x1xi32> loc(#loc134)
    %107 = arith.extsi %106 : tensor<16x1xi32> to tensor<16x1xi64> loc(#loc135)
    %108 = arith.addi %105, %107 : tensor<16x1xi64> loc(#loc135)
    %109 = arith.muli %2, %c128_i32 : i32 loc(#loc136)
    %110 = arith.extsi %109 : i32 to i64 loc(#loc137)
    %111 = tt.splat %110 : i64 -> tensor<16x1xi64> loc(#loc137)
    %112 = arith.addi %108, %111 : tensor<16x1xi64> loc(#loc137)
    %113 = tt.broadcast %112 : tensor<16x1xi64> -> tensor<16x128xi64> loc(#loc138)
    %114 = arith.addi %113, %45 : tensor<16x128xi64> loc(#loc138)
    %115 = tt.splat %arg0 : !tt.ptr<f32> -> tensor<16x128x!tt.ptr<f32>> loc(#loc139)
    %116 = tt.addptr %115, %114 : tensor<16x128x!tt.ptr<f32>>, tensor<16x128xi64> loc(#loc139)
    tt.store %116, %104#0, %64 : tensor<16x128x!tt.ptr<f32>> loc(#loc140)
    %117 = arith.extsi %28 : tensor<16xi32> to tensor<16xi64> loc(#loc141)
    %118 = arith.muli %117, %cst_2 : tensor<16xi64> loc(#loc142)
    %119 = arith.muli %32, %cst_1 : tensor<16xi32> loc(#loc143)
    %120 = arith.extsi %119 : tensor<16xi32> to tensor<16xi64> loc(#loc144)
    %121 = arith.addi %118, %120 : tensor<16xi64> loc(#loc144)
    %122 = arith.extsi %2 : i32 to i64 loc(#loc145)
    %123 = tt.splat %122 : i64 -> tensor<16xi64> loc(#loc145)
    %124 = arith.addi %121, %123 : tensor<16xi64> loc(#loc145)
    %125 = arith.andi %53, %56 : tensor<16xi1> loc(#loc146)
    %126 = tt.splat %arg1 : !tt.ptr<f32> -> tensor<16x!tt.ptr<f32>> loc(#loc147)
    %127 = tt.addptr %126, %124 : tensor<16x!tt.ptr<f32>>, tensor<16xi64> loc(#loc147)
    tt.store %127, %104#2, %125 : tensor<16x!tt.ptr<f32>> loc(#loc148)
    %128 = tt.splat %arg2 : !tt.ptr<f32> -> tensor<16x!tt.ptr<f32>> loc(#loc149)
    %129 = tt.addptr %128, %124 : tensor<16x!tt.ptr<f32>>, tensor<16xi64> loc(#loc149)
    tt.store %129, %104#1, %125 : tensor<16x!tt.ptr<f32>> loc(#loc150)
    tt.return loc(#loc151)
  } loc(#loc)
} loc(#loc)
#loc2 = loc("/usr/local/lib/python3.12/dist-packages/vllm/attention/ops/triton_unified_attention.py":339:39)
#loc3 = loc("/usr/local/lib/python3.12/dist-packages/vllm/attention/ops/triton_unified_attention.py":340:32)
#loc4 = loc("/usr/local/lib/python3.12/dist-packages/vllm/attention/ops/triton_unified_attention.py":341:29)
#loc5 = loc("/usr/local/lib/python3.12/dist-packages/vllm/attention/ops/triton_unified_attention.py":38:4)
#loc7 = loc("/usr/local/lib/python3.12/dist-packages/vllm/attention/ops/triton_unified_attention.py":38:17)
#loc8 = loc("/usr/local/lib/python3.12/dist-packages/vllm/attention/ops/triton_unified_attention.py":39:22)
#loc9 = loc("/usr/local/lib/python3.12/dist-packages/vllm/attention/ops/triton_unified_attention.py":39:32)
#loc10 = loc("/usr/local/lib/python3.12/dist-packages/vllm/attention/ops/triton_unified_attention.py":40:44)
#loc11 = loc("/usr/local/lib/python3.12/dist-packages/vllm/attention/ops/triton_unified_attention.py":40:22)
#loc12 = loc("/usr/local/lib/python3.12/dist-packages/vllm/attention/ops/triton_unified_attention.py":41:25)
#loc13 = loc("/usr/local/lib/python3.12/dist-packages/vllm/attention/ops/triton_unified_attention.py":41:35)
#loc14 = loc("/usr/local/lib/python3.12/dist-packages/vllm/attention/ops/triton_unified_attention.py":43:22)
#loc15 = loc("/usr/local/lib/python3.12/dist-packages/vllm/attention/ops/triton_unified_attention.py":43:11)
#loc16 = loc("/usr/local/lib/python3.12/dist-packages/vllm/attention/ops/triton_unified_attention.py":44:25)
#loc17 = loc("/usr/local/lib/python3.12/dist-packages/vllm/attention/ops/triton_unified_attention.py":43:8)
#loc18 = loc("/usr/local/lib/python3.12/dist-packages/vllm/attention/ops/triton_unified_attention.py":48:18)
#loc19 = loc("/usr/local/lib/python3.12/dist-packages/vllm/attention/ops/triton_unified_attention.py":347:32)
#loc20 = loc("/usr/local/lib/python3.12/dist-packages/vllm/attention/ops/triton_unified_attention.py":346:32)
#loc21 = loc("/usr/local/lib/python3.12/dist-packages/vllm/attention/ops/triton_unified_attention.py":347:44)
#loc22 = loc("/usr/local/lib/python3.12/dist-packages/vllm/attention/ops/triton_unified_attention.py":347:54)
#loc23 = loc("/usr/local/lib/python3.12/dist-packages/vllm/attention/ops/triton_unified_attention.py":349:45)
#loc24 = loc("/usr/local/lib/python3.12/dist-packages/vllm/attention/ops/triton_unified_attention.py":352:74)
#loc25 = loc("/usr/local/lib/python3.12/dist-packages/vllm/attention/ops/triton_unified_attention.py":352:42)
#loc26 = loc("/usr/local/lib/python3.12/dist-packages/vllm/attention/ops/triton_unified_attention.py":355:10)
#loc27 = loc("/usr/local/lib/python3.12/dist-packages/vllm/attention/ops/triton_unified_attention.py":357:27)
#loc28 = loc("/usr/local/lib/python3.12/dist-packages/vllm/attention/ops/triton_unified_attention.py":357:38)
#loc29 = loc("/usr/local/lib/python3.12/dist-packages/vllm/attention/ops/triton_unified_attention.py":358:8)
#loc30 = loc("/usr/local/lib/python3.12/dist-packages/vllm/attention/ops/triton_unified_attention.py":361:37)
#loc31 = loc("/usr/local/lib/python3.12/dist-packages/vllm/attention/ops/triton_unified_attention.py":361:22)
#loc32 = loc("/usr/local/lib/python3.12/dist-packages/vllm/attention/ops/triton_unified_attention.py":22:20)
#loc33 = loc("/usr/local/lib/python3.12/dist-packages/vllm/attention/ops/triton_unified_attention.py":365:42)
#loc34 = loc("/usr/local/lib/python3.12/dist-packages/vllm/attention/ops/triton_unified_attention.py":22:26)
#loc35 = loc("/usr/local/lib/python3.12/dist-packages/vllm/attention/ops/triton_unified_attention.py":367:18)
#loc36 = loc("/usr/local/lib/python3.12/dist-packages/vllm/attention/ops/triton_unified_attention.py":367:39)
#loc37 = loc("/usr/local/lib/python3.12/dist-packages/vllm/attention/ops/triton_unified_attention.py":367:53)
#loc38 = loc("/usr/local/lib/python3.12/dist-packages/vllm/attention/ops/triton_unified_attention.py":370:26)
#loc39 = loc("/usr/local/lib/python3.12/dist-packages/vllm/attention/ops/triton_unified_attention.py":371:26)
#loc40 = loc("/usr/local/lib/python3.12/dist-packages/vllm/attention/ops/triton_unified_attention.py":373:56)
#loc41 = loc("/usr/local/lib/python3.12/dist-packages/vllm/attention/ops/triton_unified_attention.py":373:46)
#loc42 = loc("/usr/local/lib/python3.12/dist-packages/vllm/attention/ops/triton_unified_attention.py":375:52)
#loc43 = loc("/usr/local/lib/python3.12/dist-packages/vllm/attention/ops/triton_unified_attention.py":376:35)
#loc44 = loc("/usr/local/lib/python3.12/dist-packages/vllm/attention/ops/triton_unified_attention.py":377:17)
#loc45 = loc("/usr/local/lib/python3.12/dist-packages/vllm/attention/ops/triton_unified_attention.py":377:8)
#loc46 = loc("/usr/local/lib/python3.12/dist-packages/vllm/attention/ops/triton_unified_attention.py":379:35)
#loc47 = loc("/usr/local/lib/python3.12/dist-packages/vllm/attention/ops/triton_unified_attention.py":379:46)
#loc48 = loc("/usr/local/lib/python3.12/dist-packages/vllm/attention/ops/triton_unified_attention.py":380:35)
#loc49 = loc("/usr/local/lib/python3.12/dist-packages/vllm/attention/ops/triton_unified_attention.py":380:46)
#loc50 = loc("/usr/local/lib/python3.12/dist-packages/vllm/attention/ops/triton_unified_attention.py":380:20)
#loc51 = loc("/usr/local/lib/python3.12/dist-packages/vllm/attention/ops/triton_unified_attention.py":380:70)
#loc52 = loc("/usr/local/lib/python3.12/dist-packages/vllm/attention/ops/triton_unified_attention.py":380:63)
#loc53 = loc("/usr/local/lib/python3.12/dist-packages/vllm/attention/ops/triton_unified_attention.py":382:33)
#loc54 = loc("/usr/local/lib/python3.12/dist-packages/vllm/attention/ops/triton_unified_attention.py":382:47)
#loc55 = loc("/usr/local/lib/python3.12/dist-packages/vllm/attention/ops/triton_unified_attention.py":382:53)
#loc56 = loc("/usr/local/lib/python3.12/dist-packages/vllm/attention/ops/triton_unified_attention.py":383:40)
#loc57 = loc("/usr/local/lib/python3.12/dist-packages/vllm/attention/ops/triton_unified_attention.py":383:64)
#loc58 = loc("/usr/local/lib/python3.12/dist-packages/vllm/attention/ops/triton_unified_attention.py":383:70)
#loc59 = loc("/usr/local/lib/python3.12/dist-packages/vllm/attention/ops/triton_unified_attention.py":384:45)
#loc60 = loc("/usr/local/lib/python3.12/dist-packages/vllm/attention/ops/triton_unified_attention.py":384:65)
#loc61 = loc("/usr/local/lib/python3.12/dist-packages/vllm/attention/ops/triton_unified_attention.py":384:71)
#loc62 = loc("/usr/local/lib/python3.12/dist-packages/vllm/attention/ops/triton_unified_attention.py":389:22)
#loc63 = loc("/usr/local/lib/python3.12/dist-packages/vllm/attention/ops/triton_unified_attention.py":389:46)
#loc64 = loc("/usr/local/lib/python3.12/dist-packages/vllm/attention/ops/triton_unified_attention.py":389:33)
#loc65 = loc("/usr/local/lib/python3.12/dist-packages/vllm/attention/ops/triton_unified_attention.py":389:70)
#loc66 = loc("/usr/local/lib/python3.12/dist-packages/vllm/attention/ops/triton_unified_attention.py":389:57)
#loc67 = loc("/usr/local/lib/python3.12/dist-packages/vllm/attention/ops/triton_unified_attention.py":388:20)
#loc68 = loc("/usr/local/lib/python3.12/dist-packages/vllm/attention/ops/triton_unified_attention.py":388:8)
#loc69 = loc("/usr/local/lib/python3.12/dist-packages/vllm/attention/ops/triton_unified_attention.py":393:35)
#loc70 = loc("/usr/local/lib/python3.12/dist-packages/vllm/attention/ops/triton_unified_attention.py":400:28)
#loc71 = loc("/usr/local/lib/python3.12/dist-packages/vllm/attention/ops/triton_unified_attention.py":413:34)
#loc72 = loc("/usr/local/lib/python3.12/dist-packages/vllm/attention/ops/triton_unified_attention.py":418:28)
#loc73 = loc("/usr/local/lib/python3.12/dist-packages/vllm/attention/ops/triton_unified_attention.py":418:33)
#loc74 = loc("/usr/local/lib/python3.12/dist-packages/vllm/attention/ops/triton_unified_attention.py":418:53)
#loc75 = loc("/usr/local/lib/python3.12/dist-packages/vllm/attention/ops/triton_unified_attention.py":420:56)
#loc76 = loc("/usr/local/lib/python3.12/dist-packages/vllm/attention/ops/triton_unified_attention.py":425:34)
#loc77 = loc("/usr/local/lib/python3.12/dist-packages/vllm/attention/ops/triton_unified_attention.py":427:27)
#loc78 = loc("/usr/local/lib/python3.12/dist-packages/vllm/attention/ops/triton_unified_attention.py":427:38)
#loc79 = loc("/usr/local/lib/python3.12/dist-packages/vllm/attention/ops/triton_unified_attention.py":427:20)
#loc80 = loc("/usr/local/lib/python3.12/dist-packages/vllm/attention/ops/triton_unified_attention.py":430:34)
#loc81 = loc("/usr/local/lib/python3.12/dist-packages/vllm/attention/ops/triton_unified_attention.py":431:27)
#loc82 = loc("/usr/local/lib/python3.12/dist-packages/vllm/attention/ops/triton_unified_attention.py":431:20)
#loc83 = loc("/usr/local/lib/python3.12/dist-packages/vllm/attention/ops/triton_unified_attention.py":432:27)
#loc84 = loc("/usr/local/lib/python3.12/dist-packages/vllm/attention/ops/triton_unified_attention.py":432:38)
#loc85 = loc("/usr/local/lib/python3.12/dist-packages/vllm/attention/ops/triton_unified_attention.py":432:20)
#loc86 = loc("/usr/local/lib/python3.12/dist-packages/vllm/attention/ops/triton_unified_attention.py":436:39)
#loc87 = loc("/usr/local/lib/python3.12/dist-packages/vllm/attention/ops/triton_unified_attention.py":435:41)
#loc88 = loc("/usr/local/lib/python3.12/dist-packages/vllm/attention/ops/triton_unified_attention.py":435:25)
#loc89 = loc("/usr/local/lib/python3.12/dist-packages/vllm/attention/ops/triton_unified_attention.py":448:43)
#loc90 = loc("/usr/local/lib/python3.12/dist-packages/vllm/attention/ops/triton_unified_attention.py":462:65)
#loc91 = loc("/usr/local/lib/python3.12/dist-packages/vllm/attention/ops/triton_unified_attention.py":462:55)
#loc92 = loc("/usr/local/lib/python3.12/dist-packages/vllm/attention/ops/triton_unified_attention.py":462:76)
#loc93 = loc("/usr/local/lib/python3.12/dist-packages/vllm/attention/ops/triton_unified_attention.py":462:41)
#loc94 = loc("/usr/local/lib/python3.12/dist-packages/vllm/attention/ops/triton_unified_attention.py":467:21)
#loc95 = loc("/usr/local/lib/python3.12/dist-packages/vllm/attention/ops/triton_unified_attention.py":472:45)
#loc96 = loc("/usr/local/lib/python3.12/dist-packages/vllm/attention/ops/triton_unified_attention.py":472:69)
#loc97 = loc("/usr/local/lib/python3.12/dist-packages/vllm/attention/ops/triton_unified_attention.py":418:12)
#loc98 = loc("/usr/local/lib/python3.12/dist-packages/vllm/attention/ops/triton_unified_attention.py":420:77)
#loc99 = loc("/usr/local/lib/python3.12/dist-packages/vllm/attention/ops/triton_unified_attention.py":420:37)
#loc100 = loc("/usr/local/lib/python3.12/dist-packages/vllm/attention/ops/triton_unified_attention.py":424:41)
#loc101 = loc("/usr/local/lib/python3.12/dist-packages/vllm/attention/ops/triton_unified_attention.py":425:20)
#loc102 = loc("/usr/local/lib/python3.12/dist-packages/vllm/attention/ops/triton_unified_attention.py":426:20)
#loc103 = loc("/usr/local/lib/python3.12/dist-packages/vllm/attention/ops/triton_unified_attention.py":429:41)
#loc104 = loc("/usr/local/lib/python3.12/dist-packages/vllm/attention/ops/triton_unified_attention.py":430:20)
#loc105 = loc("/usr/local/lib/python3.12/dist-packages/vllm/attention/ops/triton_unified_attention.py":448:25)
#loc106 = loc("/usr/local/lib/python3.12/dist-packages/vllm/attention/ops/triton_unified_attention.py":460:25)
#loc107 = loc("/usr/local/lib/python3.12/dist-packages/vllm/attention/ops/triton_unified_attention.py":460:38)
#loc108 = loc("/usr/local/lib/python3.12/dist-packages/vllm/attention/ops/triton_unified_attention.py":462:30)
#loc109 = loc("/usr/local/lib/python3.12/dist-packages/vllm/attention/ops/triton_unified_attention.py":467:31)
#loc110 = loc("/usr/local/lib/python3.12/dist-packages/vllm/attention/ops/triton_unified_attention.py":467:13)
#loc111 = loc("/usr/local/lib/python3.12/dist-packages/vllm/attention/ops/triton_unified_attention.py":473:24)
#loc112 = loc("/usr/local/lib/python3.12/dist-packages/triton/language/standard.py":184:40)
#loc114 = loc("/usr/local/lib/python3.12/dist-packages/triton/language/standard.py":163:27)
#loc115 = loc("/usr/local/lib/python3.12/dist-packages/vllm/attention/ops/triton_unified_attention.py":496:28)
#loc116 = loc("/usr/local/lib/python3.12/dist-packages/vllm/attention/ops/triton_unified_attention.py":499:29)
#loc117 = loc("/usr/local/lib/python3.12/dist-packages/vllm/attention/ops/triton_unified_attention.py":499:49)
#loc118 = loc("/usr/local/lib/python3.12/dist-packages/vllm/attention/ops/triton_unified_attention.py":502:27)
#loc119 = loc("/usr/local/lib/python3.12/dist-packages/vllm/attention/ops/triton_unified_attention.py":502:23)
#loc120 = loc("/usr/local/lib/python3.12/dist-packages/vllm/attention/ops/triton_unified_attention.py":502:19)
#loc121 = loc("/usr/local/lib/python3.12/dist-packages/triton/language/standard.py":267:36)
#loc123 = loc("/usr/local/lib/python3.12/dist-packages/triton/language/standard.py":256:15)
#loc124 = loc("/usr/local/lib/python3.12/dist-packages/vllm/attention/ops/triton_unified_attention.py":508:27)
#loc125 = loc("/usr/local/lib/python3.12/dist-packages/vllm/attention/ops/triton_unified_attention.py":508:23)
#loc126 = loc("/usr/local/lib/python3.12/dist-packages/vllm/attention/ops/triton_unified_attention.py":511:26)
#loc127 = loc("/usr/local/lib/python3.12/dist-packages/vllm/attention/ops/triton_unified_attention.py":511:20)
#loc128 = loc("/usr/local/lib/python3.12/dist-packages/vllm/attention/ops/triton_unified_attention.py":514:16)
#loc129 = loc("/usr/local/lib/python3.12/dist-packages/vllm/attention/ops/triton_unified_attention.py":514:24)
#loc130 = loc("/usr/local/lib/python3.12/dist-packages/vllm/attention/ops/triton_unified_attention.py":518:27)
#loc131 = loc("/usr/local/lib/python3.12/dist-packages/vllm/attention/ops/triton_unified_attention.py":518:37)
#loc132 = loc("/usr/local/lib/python3.12/dist-packages/vllm/attention/ops/triton_unified_attention.py":518:8)
#loc133 = loc("/usr/local/lib/python3.12/dist-packages/vllm/attention/ops/triton_unified_attention.py":522:9)
#loc134 = loc("/usr/local/lib/python3.12/dist-packages/vllm/attention/ops/triton_unified_attention.py":523:35)
#loc135 = loc("/usr/local/lib/python3.12/dist-packages/vllm/attention/ops/triton_unified_attention.py":523:8)
#loc136 = loc("/usr/local/lib/python3.12/dist-packages/vllm/attention/ops/triton_unified_attention.py":524:19)
#loc137 = loc("/usr/local/lib/python3.12/dist-packages/vllm/attention/ops/triton_unified_attention.py":524:8)
#loc138 = loc("/usr/local/lib/python3.12/dist-packages/vllm/attention/ops/triton_unified_attention.py":524:38)
#loc139 = loc("/usr/local/lib/python3.12/dist-packages/vllm/attention/ops/triton_unified_attention.py":526:26)
#loc140 = loc("/usr/local/lib/python3.12/dist-packages/vllm/attention/ops/triton_unified_attention.py":527:8)
#loc141 = loc("/usr/local/lib/python3.12/dist-packages/vllm/attention/ops/triton_unified_attention.py":530:37)
#loc142 = loc("/usr/local/lib/python3.12/dist-packages/vllm/attention/ops/triton_unified_attention.py":531:20)
#loc143 = loc("/usr/local/lib/python3.12/dist-packages/vllm/attention/ops/triton_unified_attention.py":532:36)
#loc144 = loc("/usr/local/lib/python3.12/dist-packages/vllm/attention/ops/triton_unified_attention.py":532:19)
#loc145 = loc("/usr/local/lib/python3.12/dist-packages/vllm/attention/ops/triton_unified_attention.py":532:59)
#loc146 = loc("/usr/local/lib/python3.12/dist-packages/vllm/attention/ops/triton_unified_attention.py":533:64)
#loc147 = loc("/usr/local/lib/python3.12/dist-packages/vllm/attention/ops/triton_unified_attention.py":533:28)
#loc148 = loc("/usr/local/lib/python3.12/dist-packages/vllm/attention/ops/triton_unified_attention.py":533:41)
#loc149 = loc("/usr/local/lib/python3.12/dist-packages/vllm/attention/ops/triton_unified_attention.py":534:31)
#loc150 = loc("/usr/local/lib/python3.12/dist-packages/vllm/attention/ops/triton_unified_attention.py":535:13)
#loc151 = loc("/usr/local/lib/python3.12/dist-packages/vllm/attention/ops/triton_unified_attention.py":534:4)
#loc152 = loc(callsite(#loc5 at #loc6))
#loc153 = loc(callsite(#loc7 at #loc6))
#loc155 = loc(callsite(#loc8 at #loc6))
#loc156 = loc(callsite(#loc9 at #loc6))
#loc157 = loc(callsite(#loc10 at #loc6))
#loc158 = loc(callsite(#loc11 at #loc6))
#loc159 = loc(callsite(#loc12 at #loc6))
#loc160 = loc(callsite(#loc13 at #loc6))
#loc161 = loc(callsite(#loc14 at #loc6))
#loc162 = loc(callsite(#loc15 at #loc6))
#loc163 = loc(callsite(#loc16 at #loc6))
#loc164 = loc(callsite(#loc17 at #loc6))
#loc165 = loc(callsite(#loc18 at #loc6))
#loc166 = loc(callsite(#loc32 at #loc33))
#loc167 = loc(callsite(#loc34 at #loc33))
#loc168 = loc(callsite(#loc32 at #loc71))
#loc169 = loc(callsite(#loc34 at #loc71))
#loc170 = loc(callsite(#loc112 at #loc113))
#loc172 = loc(callsite(#loc114 at #loc112))
#loc173 = loc(callsite(#loc121 at #loc122))
#loc175 = loc(callsite(#loc123 at #loc121))
#loc176 = loc(callsite(#loc172 at #loc113))
#loc177 = loc(callsite(#loc175 at #loc122))
