#loc = loc("/usr/local/lib/python3.12/dist-packages/vllm/attention/ops/triton_unified_attention.py":52:0)
#loc1 = loc(unknown)
#loc5 = loc("/usr/local/lib/python3.12/dist-packages/vllm/attention/ops/triton_unified_attention.py":101:36)
#loc108 = loc("/usr/local/lib/python3.12/dist-packages/vllm/attention/ops/triton_unified_attention.py":254:35)
#loc117 = loc("/usr/local/lib/python3.12/dist-packages/vllm/attention/ops/triton_unified_attention.py":263:21)
#loc139 = loc(callsite(#loc1 at #loc5))
#loc154 = loc(callsite(#loc1 at #loc108))
#loc157 = loc(callsite(#loc1 at #loc117))
module {
  tt.func public @kernel_unified_attention_2d(%arg0: !tt.ptr<bf16> {tt.divisibility = 16 : i32, tt.pointer_range = 32 : i32} loc("/usr/local/lib/python3.12/dist-packages/vllm/attention/ops/triton_unified_attention.py":52:0), %arg1: !tt.ptr<bf16> {tt.divisibility = 16 : i32, tt.pointer_range = 32 : i32} loc("/usr/local/lib/python3.12/dist-packages/vllm/attention/ops/triton_unified_attention.py":52:0), %arg2: !tt.ptr<bf16> {tt.divisibility = 16 : i32, tt.pointer_range = 32 : i32} loc("/usr/local/lib/python3.12/dist-packages/vllm/attention/ops/triton_unified_attention.py":52:0), %arg3: !tt.ptr<bf16> {tt.divisibility = 16 : i32, tt.pointer_range = 32 : i32} loc("/usr/local/lib/python3.12/dist-packages/vllm/attention/ops/triton_unified_attention.py":52:0), %arg4: !tt.ptr<i32> {tt.divisibility = 16 : i32, tt.pointer_range = 32 : i32} loc("/usr/local/lib/python3.12/dist-packages/vllm/attention/ops/triton_unified_attention.py":52:0), %arg5: !tt.ptr<i32> {tt.divisibility = 16 : i32, tt.pointer_range = 32 : i32} loc("/usr/local/lib/python3.12/dist-packages/vllm/attention/ops/triton_unified_attention.py":52:0), %arg6: f32 loc("/usr/local/lib/python3.12/dist-packages/vllm/attention/ops/triton_unified_attention.py":52:0), %arg7: !tt.ptr<f32> {tt.divisibility = 16 : i32, tt.pointer_range = 32 : i32} loc("/usr/local/lib/python3.12/dist-packages/vllm/attention/ops/triton_unified_attention.py":52:0), %arg8: !tt.ptr<f32> {tt.divisibility = 16 : i32, tt.pointer_range = 32 : i32} loc("/usr/local/lib/python3.12/dist-packages/vllm/attention/ops/triton_unified_attention.py":52:0), %arg9: i32 {tt.divisibility = 16 : i32} loc("/usr/local/lib/python3.12/dist-packages/vllm/attention/ops/triton_unified_attention.py":52:0), %arg10: i64 {tt.divisibility = 16 : i32} loc("/usr/local/lib/python3.12/dist-packages/vllm/attention/ops/triton_unified_attention.py":52:0), %arg11: i64 {tt.divisibility = 16 : i32} loc("/usr/local/lib/python3.12/dist-packages/vllm/attention/ops/triton_unified_attention.py":52:0), %arg12: i64 {tt.divisibility = 16 : i32} loc("/usr/local/lib/python3.12/dist-packages/vllm/attention/ops/triton_unified_attention.py":52:0), %arg13: i64 {tt.divisibility = 16 : i32} loc("/usr/local/lib/python3.12/dist-packages/vllm/attention/ops/triton_unified_attention.py":52:0), %arg14: i64 {tt.divisibility = 16 : i32} loc("/usr/local/lib/python3.12/dist-packages/vllm/attention/ops/triton_unified_attention.py":52:0), %arg15: i64 {tt.divisibility = 16 : i32} loc("/usr/local/lib/python3.12/dist-packages/vllm/attention/ops/triton_unified_attention.py":52:0), %arg16: i64 {tt.divisibility = 16 : i32} loc("/usr/local/lib/python3.12/dist-packages/vllm/attention/ops/triton_unified_attention.py":52:0), %arg17: i64 {tt.divisibility = 16 : i32} loc("/usr/local/lib/python3.12/dist-packages/vllm/attention/ops/triton_unified_attention.py":52:0), %arg18: i64 {tt.divisibility = 16 : i32} loc("/usr/local/lib/python3.12/dist-packages/vllm/attention/ops/triton_unified_attention.py":52:0), %arg19: i64 {tt.divisibility = 16 : i32} loc("/usr/local/lib/python3.12/dist-packages/vllm/attention/ops/triton_unified_attention.py":52:0), %arg20: i64 {tt.divisibility = 16 : i32} loc("/usr/local/lib/python3.12/dist-packages/vllm/attention/ops/triton_unified_attention.py":52:0), %arg21: i64 {tt.divisibility = 16 : i32} loc("/usr/local/lib/python3.12/dist-packages/vllm/attention/ops/triton_unified_attention.py":52:0), %arg22: !tt.ptr<i32> {tt.divisibility = 16 : i32, tt.pointer_range = 32 : i32} loc("/usr/local/lib/python3.12/dist-packages/vllm/attention/ops/triton_unified_attention.py":52:0), %arg23: i32 loc("/usr/local/lib/python3.12/dist-packages/vllm/attention/ops/triton_unified_attention.py":52:0)) attributes {noinline = false} {
    %c15_i32 = arith.constant 15 : i32 loc(#loc1)
    %c2_i32 = arith.constant 2 : i32 loc(#loc1)
    %cst = arith.constant dense<0.000000e+00> : tensor<128x16xbf16> loc(#loc1)
    %c0_i32 = arith.constant 0 : i32 loc(#loc1)
    %cst_0 = arith.constant dense<0.000000e+00> : tensor<16x128xbf16> loc(#loc1)
    %cst_1 = arith.constant dense<0.000000e+00> : tensor<16xf32> loc(#loc1)
    %cst_2 = arith.constant dense<0xFF800000> : tensor<16x16xf32> loc(#loc1)
    %cst_3 = arith.constant dense<0.000000e+00> : tensor<16x16xf32> loc(#loc1)
    %cst_4 = arith.constant dense<1> : tensor<16x1xi32> loc(#loc1)
    %c16_i32 = arith.constant 16 : i32 loc(#loc1)
    %cst_5 = arith.constant dense<1.000000e+00> : tensor<16xf32> loc(#loc1)
    %cst_6 = arith.constant dense<0xFF800000> : tensor<16xf32> loc(#loc1)
    %cst_7 = arith.constant dense<0.000000e+00> : tensor<16x128xf32> loc(#loc1)
    %cst_8 = arith.constant dense<32> : tensor<16xi32> loc(#loc1)
    %cst_9 = arith.constant dense<0> : tensor<16xi32> loc(#loc1)
    %cst_10 = arith.constant dense<1> : tensor<16xi32> loc(#loc1)
    %cst_11 = arith.constant dense<0> : tensor<128xi32> loc(#loc1)
    %cst_12 = arith.constant dense<1> : tensor<128xi32> loc(#loc1)
    %cst_13 = arith.constant dense<128> : tensor<128xi32> loc(#loc1)
    %cst_14 = arith.constant dense<4> : tensor<16xi32> loc(#loc1)
    %c1_i32 = arith.constant 1 : i32 loc(#loc1)
    %c4_i32 = arith.constant 4 : i32 loc(#loc1)
    %0 = tt.get_program_id x : i32 loc(#loc2)
    %1 = tt.get_program_id y : i32 loc(#loc3)
    %2:2 = scf.while (%arg24 = %c0_i32, %arg25 = %arg23) : (i32, i32) -> (i32, i32) {
      %112 = arith.cmpi slt, %arg24, %arg25 : i32 loc(#loc138)
      scf.condition(%112) %arg24, %arg25 : i32, i32 loc(#loc138)
    } do {
    ^bb0(%arg24: i32 loc(callsite(#loc1 at #loc5)), %arg25: i32 loc(callsite(#loc1 at #loc5))):
      %112 = arith.addi %arg24, %arg25 : i32 loc(#loc140)
      %113 = arith.divsi %112, %c2_i32 : i32 loc(#loc141)
      %114 = tt.addptr %arg22, %113 : !tt.ptr<i32>, i32 loc(#loc142)
      %115 = tt.load %114 : !tt.ptr<i32> loc(#loc143)
      %116 = arith.divsi %115, %c4_i32 : i32 loc(#loc144)
      %117 = arith.addi %116, %113 : i32 loc(#loc145)
      %118 = arith.cmpi sle, %117, %0 : i32 loc(#loc146)
      %119 = arith.select %118, %arg25, %113 : i32 loc(#loc147)
      %120 = scf.if %118 -> (i32) {
        %121 = arith.addi %113, %c1_i32 : i32 loc(#loc148)
        scf.yield %121 : i32 loc(#loc148)
      } else {
        scf.yield %arg24 : i32 loc(#loc139)
      } loc(#loc147)
      scf.yield %120, %119 : i32, i32 loc(#loc149)
    } loc(#loc137)
    %3 = arith.subi %2#0, %c1_i32 : i32 loc(#loc150)
    %4 = tt.addptr %arg22, %3 : !tt.ptr<i32>, i32 loc(#loc18)
    %5 = tt.load %4 : !tt.ptr<i32> loc(#loc19)
    %6 = arith.divsi %5, %c4_i32 : i32 loc(#loc20)
    %7 = arith.addi %6, %3 : i32 loc(#loc21)
    %8 = arith.subi %0, %7 : i32 loc(#loc22)
    %9 = tt.addptr %4, %c1_i32 : !tt.ptr<i32>, i32 loc(#loc23)
    %10 = tt.load %9 : !tt.ptr<i32> loc(#loc24)
    %11 = arith.subi %10, %5 : i32 loc(#loc25)
    %12 = arith.muli %8, %c4_i32 : i32 loc(#loc26)
    %13 = arith.cmpi sge, %12, %11 : i32 loc(#loc27)
    cf.cond_br %13, ^bb1, ^bb2 loc(#loc27)
  ^bb1:  // pred: ^bb0
    tt.return loc(#loc28)
  ^bb2:  // pred: ^bb0
    %14 = tt.make_range {end = 16 : i32, start = 0 : i32} : tensor<16xi32> loc(#loc29)
    %15 = tt.make_range {end = 128 : i32, start = 0 : i32} : tensor<128xi32> loc(#loc30)
    %16 = arith.divsi %14, %cst_14 : tensor<16xi32> loc(#loc31)
    %17 = tt.splat %12 : i32 -> tensor<16xi32> loc(#loc32)
    %18 = arith.addi %17, %16 : tensor<16xi32> loc(#loc32)
    %19 = tt.splat %5 : i32 -> tensor<16xi32> loc(#loc33)
    %20 = arith.addi %19, %18 : tensor<16xi32> loc(#loc33)
    %21 = arith.muli %1, %c4_i32 : i32 loc(#loc34)
    %22 = arith.remsi %14, %cst_14 : tensor<16xi32> loc(#loc35)
    %23 = tt.splat %21 : i32 -> tensor<16xi32> loc(#loc36)
    %24 = arith.addi %23, %22 : tensor<16xi32> loc(#loc36)
    %25 = tt.expand_dims %20 {axis = 1 : i32} : tensor<16xi32> -> tensor<16x1xi32> loc(#loc37)
    %26 = arith.extsi %25 : tensor<16x1xi32> to tensor<16x1xi64> loc(#loc38)
    %27 = tt.splat %arg11 : i64 -> tensor<16x1xi64> loc(#loc38)
    %28 = arith.muli %26, %27 : tensor<16x1xi64> loc(#loc38)
    %29 = tt.expand_dims %24 {axis = 1 : i32} : tensor<16xi32> -> tensor<16x1xi32> loc(#loc39)
    %30 = arith.extsi %29 : tensor<16x1xi32> to tensor<16x1xi64> loc(#loc40)
    %31 = tt.splat %arg12 : i64 -> tensor<16x1xi64> loc(#loc40)
    %32 = arith.muli %30, %31 : tensor<16x1xi64> loc(#loc40)
    %33 = arith.addi %28, %32 : tensor<16x1xi64> loc(#loc41)
    %34 = tt.expand_dims %15 {axis = 0 : i32} : tensor<128xi32> -> tensor<1x128xi32> loc(#loc42)
    %35 = arith.extsi %34 : tensor<1x128xi32> to tensor<1x128xi64> loc(#loc43)
    %36 = tt.broadcast %33 : tensor<16x1xi64> -> tensor<16x128xi64> loc(#loc43)
    %37 = tt.broadcast %35 : tensor<1x128xi64> -> tensor<16x128xi64> loc(#loc43)
    %38 = arith.addi %36, %37 : tensor<16x128xi64> loc(#loc43)
    %39 = arith.cmpi slt, %15, %cst_13 : tensor<128xi32> loc(#loc44)
    %40 = arith.select %39, %cst_12, %cst_11 : tensor<128xi1>, tensor<128xi32> loc(#loc45)
    %41 = arith.cmpi ne, %40, %cst_11 : tensor<128xi32> loc(#loc46)
    %42 = tt.splat %11 : i32 -> tensor<16xi32> loc(#loc47)
    %43 = arith.cmpi slt, %18, %42 : tensor<16xi32> loc(#loc47)
    %44 = arith.select %43, %cst_10, %cst_9 : tensor<16xi1>, tensor<16xi32> loc(#loc48)
    %45 = arith.cmpi ne, %44, %cst_9 : tensor<16xi32> loc(#loc49)
    %46 = arith.cmpi slt, %24, %cst_8 : tensor<16xi32> loc(#loc50)
    %47 = arith.select %46, %cst_10, %cst_9 : tensor<16xi1>, tensor<16xi32> loc(#loc51)
    %48 = arith.cmpi ne, %47, %cst_9 : tensor<16xi32> loc(#loc52)
    %49 = tt.expand_dims %41 {axis = 0 : i32} : tensor<128xi1> -> tensor<1x128xi1> loc(#loc53)
    %50 = tt.expand_dims %45 {axis = 1 : i32} : tensor<16xi1> -> tensor<16x1xi1> loc(#loc54)
    %51 = tt.broadcast %49 : tensor<1x128xi1> -> tensor<16x128xi1> loc(#loc55)
    %52 = tt.broadcast %50 : tensor<16x1xi1> -> tensor<16x128xi1> loc(#loc55)
    %53 = arith.andi %51, %52 : tensor<16x128xi1> loc(#loc55)
    %54 = tt.expand_dims %48 {axis = 1 : i32} : tensor<16xi1> -> tensor<16x1xi1> loc(#loc56)
    %55 = tt.broadcast %54 : tensor<16x1xi1> -> tensor<16x128xi1> loc(#loc57)
    %56 = arith.andi %53, %55 : tensor<16x128xi1> loc(#loc57)
    %57 = tt.splat %arg1 : !tt.ptr<bf16> -> tensor<16x128x!tt.ptr<bf16>> loc(#loc58)
    %58 = tt.addptr %57, %38 : tensor<16x128x!tt.ptr<bf16>>, tensor<16x128xi64> loc(#loc58)
    %59 = tt.load %58, %56, %cst_0 : tensor<16x128x!tt.ptr<bf16>> loc(#loc59)
    %60 = arith.extsi %3 : i32 to i64 loc(#loc60)
    %61 = arith.muli %60, %arg10 : i64 loc(#loc60)
    %62 = tt.addptr %arg5, %3 : !tt.ptr<i32>, i32 loc(#loc61)
    %63 = tt.load %62 : !tt.ptr<i32> loc(#loc62)
    %64 = arith.subi %63, %11 : i32 loc(#loc63)
    %65 = arith.addi %64, %12 : i32 loc(#loc64)
    %66 = arith.addi %65, %c4_i32 : i32 loc(#loc65)
    %67 = arith.minsi %66, %63 : i32 loc(#loc66)
    %68 = arith.addi %67, %c15_i32 : i32 loc(#loc151)
    %69 = arith.divsi %68, %c16_i32 : i32 loc(#loc152)
    %70 = tt.addptr %arg4, %61 : !tt.ptr<i32>, i64 loc(#loc70)
    %71 = arith.extsi %1 : i32 to i64 loc(#loc71)
    %72 = arith.muli %71, %arg21 : i64 loc(#loc71)
    %73 = tt.expand_dims %14 {axis = 1 : i32} : tensor<16xi32> -> tensor<16x1xi32> loc(#loc72)
    %74 = arith.extsi %73 : tensor<16x1xi32> to tensor<16x1xi64> loc(#loc73)
    %75 = tt.splat %arg20 : i64 -> tensor<16x1xi64> loc(#loc73)
    %76 = arith.muli %74, %75 : tensor<16x1xi64> loc(#loc73)
    %77 = tt.broadcast %76 : tensor<16x1xi64> -> tensor<16x128xi64> loc(#loc74)
    %78 = arith.muli %71, %arg18 : i64 loc(#loc75)
    %79 = tt.expand_dims %15 {axis = 1 : i32} : tensor<128xi32> -> tensor<128x1xi32> loc(#loc76)
    %80 = arith.extsi %79 : tensor<128x1xi32> to tensor<128x1xi64> loc(#loc77)
    %81 = tt.expand_dims %14 {axis = 0 : i32} : tensor<16xi32> -> tensor<1x16xi32> loc(#loc78)
    %82 = arith.extsi %81 : tensor<1x16xi32> to tensor<1x16xi64> loc(#loc79)
    %83 = tt.splat %arg17 : i64 -> tensor<1x16xi64> loc(#loc79)
    %84 = arith.muli %82, %83 : tensor<1x16xi64> loc(#loc79)
    %85 = tt.broadcast %84 : tensor<1x16xi64> -> tensor<128x16xi64> loc(#loc80)
    %86 = tt.expand_dims %41 {axis = 1 : i32} : tensor<128xi1> -> tensor<128x1xi1> loc(#loc81)
    %87 = tt.splat %arg2 : !tt.ptr<bf16> -> tensor<128x16x!tt.ptr<bf16>> loc(#loc82)
    %88 = tt.broadcast %86 : tensor<128x1xi1> -> tensor<128x16xi1> loc(#loc83)
    %89 = tt.splat %arg3 : !tt.ptr<bf16> -> tensor<16x128x!tt.ptr<bf16>> loc(#loc84)
    %90 = tt.expand_dims %18 {axis = 1 : i32} : tensor<16xi32> -> tensor<16x1xi32> loc(#loc85)
    %91 = tt.splat %64 : i32 -> tensor<16x1xi32> loc(#loc86)
    %92 = arith.addi %91, %90 : tensor<16x1xi32> loc(#loc86)
    %93 = arith.addi %92, %cst_4 : tensor<16x1xi32> loc(#loc87)
    %94 = tt.broadcast %93 : tensor<16x1xi32> -> tensor<16x16xi32> loc(#loc88)
    %95 = tt.splat %arg6 : f32 -> tensor<16x16xf32> loc(#loc89)
    %96 = arith.andi %54, %50 : tensor<16x1xi1> loc(#loc90)
    %97 = tt.broadcast %96 : tensor<16x1xi1> -> tensor<16x16xi1> loc(#loc91)
    %98:3 = scf.for %arg24 = %c0_i32 to %69 step %c1_i32 iter_args(%arg25 = %cst_7, %arg26 = %cst_5, %arg27 = %cst_6) -> (tensor<16x128xf32>, tensor<16xf32>, tensor<16xf32>)  : i32 {
      %112 = tt.addptr %70, %arg24 : !tt.ptr<i32>, i32 loc(#loc93)
      %113 = tt.load %112 : !tt.ptr<i32> loc(#loc94)
      %114 = arith.extsi %113 : i32 to i64 loc(#loc95)
      %115 = arith.muli %114, %arg19 : i64 loc(#loc95)
      %116 = arith.addi %115, %72 : i64 loc(#loc96)
      %117 = tt.splat %116 : i64 -> tensor<1x128xi64> loc(#loc97)
      %118 = arith.addi %117, %35 : tensor<1x128xi64> loc(#loc97)
      %119 = tt.broadcast %118 : tensor<1x128xi64> -> tensor<16x128xi64> loc(#loc74)
      %120 = arith.addi %119, %77 : tensor<16x128xi64> loc(#loc74)
      %121 = arith.muli %114, %arg16 : i64 loc(#loc98)
      %122 = arith.addi %121, %78 : i64 loc(#loc99)
      %123 = tt.splat %122 : i64 -> tensor<128x1xi64> loc(#loc77)
      %124 = arith.addi %123, %80 : tensor<128x1xi64> loc(#loc77)
      %125 = tt.broadcast %124 : tensor<128x1xi64> -> tensor<128x16xi64> loc(#loc80)
      %126 = arith.addi %125, %85 : tensor<128x16xi64> loc(#loc80)
      %127 = tt.addptr %87, %126 : tensor<128x16x!tt.ptr<bf16>>, tensor<128x16xi64> loc(#loc82)
      %128 = tt.load %127, %88, %cst : tensor<128x16x!tt.ptr<bf16>> loc(#loc83)
      %129 = tt.addptr %89, %120 : tensor<16x128x!tt.ptr<bf16>>, tensor<16x128xi64> loc(#loc84)
      %130 = tt.load %129, %51, %cst_0 : tensor<16x128x!tt.ptr<bf16>> loc(#loc100)
      %131 = arith.muli %arg24, %c16_i32 : i32 loc(#loc101)
      %132 = tt.splat %131 : i32 -> tensor<16xi32> loc(#loc102)
      %133 = arith.addi %132, %14 : tensor<16xi32> loc(#loc102)
      %134 = tt.expand_dims %133 {axis = 0 : i32} : tensor<16xi32> -> tensor<1x16xi32> loc(#loc103)
      %135 = tt.broadcast %134 : tensor<1x16xi32> -> tensor<16x16xi32> loc(#loc88)
      %136 = arith.cmpi slt, %135, %94 : tensor<16x16xi32> loc(#loc88)
      %137 = tt.dot %59, %128, %cst_3 : tensor<16x128xbf16> * tensor<128x16xbf16> -> tensor<16x16xf32> loc(#loc104)
      %138 = arith.mulf %95, %137 : tensor<16x16xf32> loc(#loc89)
      %139 = arith.addf %138, %cst_3 : tensor<16x16xf32> loc(#loc105)
      %140 = arith.andi %97, %136 : tensor<16x16xi1> loc(#loc91)
      %141 = arith.select %140, %139, %cst_2 : tensor<16x16xi1>, tensor<16x16xf32> loc(#loc106)
      %142 = "tt.reduce"(%141) <{axis = 1 : i32}> ({
      ^bb0(%arg28: f32 loc(callsite(#loc1 at #loc108)), %arg29: f32 loc(callsite(#loc1 at #loc108))):
        %160 = arith.maxnumf %arg28, %arg29 : f32 loc(#loc159)
        tt.reduce.return %160 : f32 loc(#loc153)
      }) : (tensor<16x16xf32>) -> tensor<16xf32> loc(#loc153)
      %143 = arith.maxnumf %arg27, %142 : tensor<16xf32> loc(#loc110)
      %144 = arith.cmpf ogt, %143, %cst_6 : tensor<16xf32> loc(#loc111)
      %145 = arith.select %144, %143, %cst_1 : tensor<16xi1>, tensor<16xf32> loc(#loc112)
      %146 = tt.expand_dims %145 {axis = 1 : i32} : tensor<16xf32> -> tensor<16x1xf32> loc(#loc113)
      %147 = tt.broadcast %146 : tensor<16x1xf32> -> tensor<16x16xf32> loc(#loc114)
      %148 = arith.subf %141, %147 : tensor<16x16xf32> loc(#loc114)
      %149 = math.exp %148 : tensor<16x16xf32> loc(#loc115)
      %150 = "tt.reduce"(%149) <{axis = 1 : i32}> ({
      ^bb0(%arg28: f32 loc(callsite(#loc1 at #loc117)), %arg29: f32 loc(callsite(#loc1 at #loc117))):
        %160 = arith.addf %arg28, %arg29 : f32 loc(#loc160)
        tt.reduce.return %160 : f32 loc(#loc156)
      }) : (tensor<16x16xf32>) -> tensor<16xf32> loc(#loc156)
      %151 = arith.subf %arg27, %145 : tensor<16xf32> loc(#loc119)
      %152 = math.exp %151 : tensor<16xf32> loc(#loc120)
      %153 = tt.expand_dims %152 {axis = 1 : i32} : tensor<16xf32> -> tensor<16x1xf32> loc(#loc121)
      %154 = tt.broadcast %153 : tensor<16x1xf32> -> tensor<16x128xf32> loc(#loc122)
      %155 = arith.mulf %arg25, %154 : tensor<16x128xf32> loc(#loc122)
      %156 = arith.mulf %arg26, %152 : tensor<16xf32> loc(#loc123)
      %157 = arith.addf %156, %150 : tensor<16xf32> loc(#loc124)
      %158 = arith.truncf %149 : tensor<16x16xf32> to tensor<16x16xbf16> loc(#loc125)
      %159 = tt.dot %158, %130, %155 : tensor<16x16xbf16> * tensor<16x128xbf16> -> tensor<16x128xf32> loc(#loc126)
      scf.yield %159, %157, %145 : tensor<16x128xf32>, tensor<16xf32>, tensor<16xf32> loc(#loc127)
    } loc(#loc92)
    %99 = tt.expand_dims %98#1 {axis = 1 : i32} : tensor<16xf32> -> tensor<16x1xf32> loc(#loc128)
    %100 = tt.broadcast %99 : tensor<16x1xf32> -> tensor<16x128xf32> loc(#loc129)
    %101 = arith.divf %98#0, %100 : tensor<16x128xf32> loc(#loc129)
    %102 = tt.splat %arg13 : i64 -> tensor<16x1xi64> loc(#loc130)
    %103 = arith.muli %26, %102 : tensor<16x1xi64> loc(#loc130)
    %104 = tt.splat %arg14 : i64 -> tensor<16x1xi64> loc(#loc131)
    %105 = arith.muli %30, %104 : tensor<16x1xi64> loc(#loc131)
    %106 = arith.addi %103, %105 : tensor<16x1xi64> loc(#loc132)
    %107 = tt.broadcast %106 : tensor<16x1xi64> -> tensor<16x128xi64> loc(#loc133)
    %108 = arith.addi %107, %37 : tensor<16x128xi64> loc(#loc133)
    %109 = tt.splat %arg0 : !tt.ptr<bf16> -> tensor<16x128x!tt.ptr<bf16>> loc(#loc134)
    %110 = tt.addptr %109, %108 : tensor<16x128x!tt.ptr<bf16>>, tensor<16x128xi64> loc(#loc134)
    %111 = arith.truncf %101 : tensor<16x128xf32> to tensor<16x128xbf16> loc(#loc135)
    tt.store %110, %111, %56 : tensor<16x128x!tt.ptr<bf16>> loc(#loc135)
    tt.return loc(#loc136)
  } loc(#loc)
} loc(#loc)
#loc2 = loc("/usr/local/lib/python3.12/dist-packages/vllm/attention/ops/triton_unified_attention.py":97:39)
#loc3 = loc("/usr/local/lib/python3.12/dist-packages/vllm/attention/ops/triton_unified_attention.py":98:32)
#loc4 = loc("/usr/local/lib/python3.12/dist-packages/vllm/attention/ops/triton_unified_attention.py":38:4)
#loc6 = loc("/usr/local/lib/python3.12/dist-packages/vllm/attention/ops/triton_unified_attention.py":38:17)
#loc7 = loc("/usr/local/lib/python3.12/dist-packages/vllm/attention/ops/triton_unified_attention.py":39:22)
#loc8 = loc("/usr/local/lib/python3.12/dist-packages/vllm/attention/ops/triton_unified_attention.py":39:32)
#loc9 = loc("/usr/local/lib/python3.12/dist-packages/vllm/attention/ops/triton_unified_attention.py":40:44)
#loc10 = loc("/usr/local/lib/python3.12/dist-packages/vllm/attention/ops/triton_unified_attention.py":40:22)
#loc11 = loc("/usr/local/lib/python3.12/dist-packages/vllm/attention/ops/triton_unified_attention.py":41:25)
#loc12 = loc("/usr/local/lib/python3.12/dist-packages/vllm/attention/ops/triton_unified_attention.py":41:35)
#loc13 = loc("/usr/local/lib/python3.12/dist-packages/vllm/attention/ops/triton_unified_attention.py":43:22)
#loc14 = loc("/usr/local/lib/python3.12/dist-packages/vllm/attention/ops/triton_unified_attention.py":43:11)
#loc15 = loc("/usr/local/lib/python3.12/dist-packages/vllm/attention/ops/triton_unified_attention.py":44:25)
#loc16 = loc("/usr/local/lib/python3.12/dist-packages/vllm/attention/ops/triton_unified_attention.py":43:8)
#loc17 = loc("/usr/local/lib/python3.12/dist-packages/vllm/attention/ops/triton_unified_attention.py":48:18)
#loc18 = loc("/usr/local/lib/python3.12/dist-packages/vllm/attention/ops/triton_unified_attention.py":104:32)
#loc19 = loc("/usr/local/lib/python3.12/dist-packages/vllm/attention/ops/triton_unified_attention.py":103:32)
#loc20 = loc("/usr/local/lib/python3.12/dist-packages/vllm/attention/ops/triton_unified_attention.py":104:44)
#loc21 = loc("/usr/local/lib/python3.12/dist-packages/vllm/attention/ops/triton_unified_attention.py":104:54)
#loc22 = loc("/usr/local/lib/python3.12/dist-packages/vllm/attention/ops/triton_unified_attention.py":106:45)
#loc23 = loc("/usr/local/lib/python3.12/dist-packages/vllm/attention/ops/triton_unified_attention.py":109:74)
#loc24 = loc("/usr/local/lib/python3.12/dist-packages/vllm/attention/ops/triton_unified_attention.py":109:42)
#loc25 = loc("/usr/local/lib/python3.12/dist-packages/vllm/attention/ops/triton_unified_attention.py":112:10)
#loc26 = loc("/usr/local/lib/python3.12/dist-packages/vllm/attention/ops/triton_unified_attention.py":114:27)
#loc27 = loc("/usr/local/lib/python3.12/dist-packages/vllm/attention/ops/triton_unified_attention.py":114:38)
#loc28 = loc("/usr/local/lib/python3.12/dist-packages/vllm/attention/ops/triton_unified_attention.py":115:8)
#loc29 = loc("/usr/local/lib/python3.12/dist-packages/vllm/attention/ops/triton_unified_attention.py":117:26)
#loc30 = loc("/usr/local/lib/python3.12/dist-packages/vllm/attention/ops/triton_unified_attention.py":118:26)
#loc31 = loc("/usr/local/lib/python3.12/dist-packages/vllm/attention/ops/triton_unified_attention.py":119:56)
#loc32 = loc("/usr/local/lib/python3.12/dist-packages/vllm/attention/ops/triton_unified_attention.py":119:46)
#loc33 = loc("/usr/local/lib/python3.12/dist-packages/vllm/attention/ops/triton_unified_attention.py":121:52)
#loc34 = loc("/usr/local/lib/python3.12/dist-packages/vllm/attention/ops/triton_unified_attention.py":122:35)
#loc35 = loc("/usr/local/lib/python3.12/dist-packages/vllm/attention/ops/triton_unified_attention.py":123:17)
#loc36 = loc("/usr/local/lib/python3.12/dist-packages/vllm/attention/ops/triton_unified_attention.py":123:8)
#loc37 = loc("/usr/local/lib/python3.12/dist-packages/vllm/attention/ops/triton_unified_attention.py":124:35)
#loc38 = loc("/usr/local/lib/python3.12/dist-packages/vllm/attention/ops/triton_unified_attention.py":124:46)
#loc39 = loc("/usr/local/lib/python3.12/dist-packages/vllm/attention/ops/triton_unified_attention.py":125:35)
#loc40 = loc("/usr/local/lib/python3.12/dist-packages/vllm/attention/ops/triton_unified_attention.py":125:46)
#loc41 = loc("/usr/local/lib/python3.12/dist-packages/vllm/attention/ops/triton_unified_attention.py":125:20)
#loc42 = loc("/usr/local/lib/python3.12/dist-packages/vllm/attention/ops/triton_unified_attention.py":125:70)
#loc43 = loc("/usr/local/lib/python3.12/dist-packages/vllm/attention/ops/triton_unified_attention.py":125:63)
#loc44 = loc("/usr/local/lib/python3.12/dist-packages/vllm/attention/ops/triton_unified_attention.py":127:33)
#loc45 = loc("/usr/local/lib/python3.12/dist-packages/vllm/attention/ops/triton_unified_attention.py":127:47)
#loc46 = loc("/usr/local/lib/python3.12/dist-packages/vllm/attention/ops/triton_unified_attention.py":127:53)
#loc47 = loc("/usr/local/lib/python3.12/dist-packages/vllm/attention/ops/triton_unified_attention.py":128:40)
#loc48 = loc("/usr/local/lib/python3.12/dist-packages/vllm/attention/ops/triton_unified_attention.py":128:64)
#loc49 = loc("/usr/local/lib/python3.12/dist-packages/vllm/attention/ops/triton_unified_attention.py":128:70)
#loc50 = loc("/usr/local/lib/python3.12/dist-packages/vllm/attention/ops/triton_unified_attention.py":129:45)
#loc51 = loc("/usr/local/lib/python3.12/dist-packages/vllm/attention/ops/triton_unified_attention.py":129:65)
#loc52 = loc("/usr/local/lib/python3.12/dist-packages/vllm/attention/ops/triton_unified_attention.py":129:71)
#loc53 = loc("/usr/local/lib/python3.12/dist-packages/vllm/attention/ops/triton_unified_attention.py":134:22)
#loc54 = loc("/usr/local/lib/python3.12/dist-packages/vllm/attention/ops/triton_unified_attention.py":134:46)
#loc55 = loc("/usr/local/lib/python3.12/dist-packages/vllm/attention/ops/triton_unified_attention.py":134:33)
#loc56 = loc("/usr/local/lib/python3.12/dist-packages/vllm/attention/ops/triton_unified_attention.py":134:70)
#loc57 = loc("/usr/local/lib/python3.12/dist-packages/vllm/attention/ops/triton_unified_attention.py":134:57)
#loc58 = loc("/usr/local/lib/python3.12/dist-packages/vllm/attention/ops/triton_unified_attention.py":133:20)
#loc59 = loc("/usr/local/lib/python3.12/dist-packages/vllm/attention/ops/triton_unified_attention.py":133:8)
#loc60 = loc("/usr/local/lib/python3.12/dist-packages/vllm/attention/ops/triton_unified_attention.py":138:35)
#loc61 = loc("/usr/local/lib/python3.12/dist-packages/vllm/attention/ops/triton_unified_attention.py":145:37)
#loc62 = loc("/usr/local/lib/python3.12/dist-packages/vllm/attention/ops/triton_unified_attention.py":145:22)
#loc63 = loc("/usr/local/lib/python3.12/dist-packages/vllm/attention/ops/triton_unified_attention.py":148:28)
#loc64 = loc("/usr/local/lib/python3.12/dist-packages/vllm/attention/ops/triton_unified_attention.py":163:39)
#loc65 = loc("/usr/local/lib/python3.12/dist-packages/vllm/attention/ops/triton_unified_attention.py":164:45)
#loc66 = loc("/usr/local/lib/python3.12/dist-packages/vllm/attention/ops/triton_unified_attention.py":168:56)
#loc67 = loc("/usr/local/lib/python3.12/dist-packages/vllm/attention/ops/triton_unified_attention.py":22:20)
#loc68 = loc("/usr/local/lib/python3.12/dist-packages/vllm/attention/ops/triton_unified_attention.py":173:45)
#loc69 = loc("/usr/local/lib/python3.12/dist-packages/vllm/attention/ops/triton_unified_attention.py":22:26)
#loc70 = loc("/usr/local/lib/python3.12/dist-packages/vllm/attention/ops/triton_unified_attention.py":178:56)
#loc71 = loc("/usr/local/lib/python3.12/dist-packages/vllm/attention/ops/triton_unified_attention.py":183:34)
#loc72 = loc("/usr/local/lib/python3.12/dist-packages/vllm/attention/ops/triton_unified_attention.py":185:27)
#loc73 = loc("/usr/local/lib/python3.12/dist-packages/vllm/attention/ops/triton_unified_attention.py":185:38)
#loc74 = loc("/usr/local/lib/python3.12/dist-packages/vllm/attention/ops/triton_unified_attention.py":185:20)
#loc75 = loc("/usr/local/lib/python3.12/dist-packages/vllm/attention/ops/triton_unified_attention.py":188:34)
#loc76 = loc("/usr/local/lib/python3.12/dist-packages/vllm/attention/ops/triton_unified_attention.py":189:27)
#loc77 = loc("/usr/local/lib/python3.12/dist-packages/vllm/attention/ops/triton_unified_attention.py":189:20)
#loc78 = loc("/usr/local/lib/python3.12/dist-packages/vllm/attention/ops/triton_unified_attention.py":190:27)
#loc79 = loc("/usr/local/lib/python3.12/dist-packages/vllm/attention/ops/triton_unified_attention.py":190:38)
#loc80 = loc("/usr/local/lib/python3.12/dist-packages/vllm/attention/ops/triton_unified_attention.py":190:20)
#loc81 = loc("/usr/local/lib/python3.12/dist-packages/vllm/attention/ops/triton_unified_attention.py":194:39)
#loc82 = loc("/usr/local/lib/python3.12/dist-packages/vllm/attention/ops/triton_unified_attention.py":193:41)
#loc83 = loc("/usr/local/lib/python3.12/dist-packages/vllm/attention/ops/triton_unified_attention.py":193:25)
#loc84 = loc("/usr/local/lib/python3.12/dist-packages/vllm/attention/ops/triton_unified_attention.py":206:43)
#loc85 = loc("/usr/local/lib/python3.12/dist-packages/vllm/attention/ops/triton_unified_attention.py":220:65)
#loc86 = loc("/usr/local/lib/python3.12/dist-packages/vllm/attention/ops/triton_unified_attention.py":220:55)
#loc87 = loc("/usr/local/lib/python3.12/dist-packages/vllm/attention/ops/triton_unified_attention.py":220:76)
#loc88 = loc("/usr/local/lib/python3.12/dist-packages/vllm/attention/ops/triton_unified_attention.py":220:41)
#loc89 = loc("/usr/local/lib/python3.12/dist-packages/vllm/attention/ops/triton_unified_attention.py":225:21)
#loc90 = loc("/usr/local/lib/python3.12/dist-packages/vllm/attention/ops/triton_unified_attention.py":230:45)
#loc91 = loc("/usr/local/lib/python3.12/dist-packages/vllm/attention/ops/triton_unified_attention.py":230:69)
#loc92 = loc("/usr/local/lib/python3.12/dist-packages/vllm/attention/ops/triton_unified_attention.py":176:22)
#loc93 = loc("/usr/local/lib/python3.12/dist-packages/vllm/attention/ops/triton_unified_attention.py":178:77)
#loc94 = loc("/usr/local/lib/python3.12/dist-packages/vllm/attention/ops/triton_unified_attention.py":178:37)
#loc95 = loc("/usr/local/lib/python3.12/dist-packages/vllm/attention/ops/triton_unified_attention.py":182:41)
#loc96 = loc("/usr/local/lib/python3.12/dist-packages/vllm/attention/ops/triton_unified_attention.py":183:20)
#loc97 = loc("/usr/local/lib/python3.12/dist-packages/vllm/attention/ops/triton_unified_attention.py":184:20)
#loc98 = loc("/usr/local/lib/python3.12/dist-packages/vllm/attention/ops/triton_unified_attention.py":187:41)
#loc99 = loc("/usr/local/lib/python3.12/dist-packages/vllm/attention/ops/triton_unified_attention.py":188:20)
#loc100 = loc("/usr/local/lib/python3.12/dist-packages/vllm/attention/ops/triton_unified_attention.py":206:25)
#loc101 = loc("/usr/local/lib/python3.12/dist-packages/vllm/attention/ops/triton_unified_attention.py":218:25)
#loc102 = loc("/usr/local/lib/python3.12/dist-packages/vllm/attention/ops/triton_unified_attention.py":218:38)
#loc103 = loc("/usr/local/lib/python3.12/dist-packages/vllm/attention/ops/triton_unified_attention.py":220:30)
#loc104 = loc("/usr/local/lib/python3.12/dist-packages/vllm/attention/ops/triton_unified_attention.py":225:31)
#loc105 = loc("/usr/local/lib/python3.12/dist-packages/vllm/attention/ops/triton_unified_attention.py":225:13)
#loc106 = loc("/usr/local/lib/python3.12/dist-packages/vllm/attention/ops/triton_unified_attention.py":231:24)
#loc107 = loc("/usr/local/lib/python3.12/dist-packages/triton/language/standard.py":184:40)
#loc109 = loc("/usr/local/lib/python3.12/dist-packages/triton/language/standard.py":163:27)
#loc110 = loc("/usr/local/lib/python3.12/dist-packages/vllm/attention/ops/triton_unified_attention.py":254:28)
#loc111 = loc("/usr/local/lib/python3.12/dist-packages/vllm/attention/ops/triton_unified_attention.py":257:29)
#loc112 = loc("/usr/local/lib/python3.12/dist-packages/vllm/attention/ops/triton_unified_attention.py":257:49)
#loc113 = loc("/usr/local/lib/python3.12/dist-packages/vllm/attention/ops/triton_unified_attention.py":260:27)
#loc114 = loc("/usr/local/lib/python3.12/dist-packages/vllm/attention/ops/triton_unified_attention.py":260:23)
#loc115 = loc("/usr/local/lib/python3.12/dist-packages/vllm/attention/ops/triton_unified_attention.py":260:19)
#loc116 = loc("/usr/local/lib/python3.12/dist-packages/triton/language/standard.py":267:36)
#loc118 = loc("/usr/local/lib/python3.12/dist-packages/triton/language/standard.py":256:15)
#loc119 = loc("/usr/local/lib/python3.12/dist-packages/vllm/attention/ops/triton_unified_attention.py":266:27)
#loc120 = loc("/usr/local/lib/python3.12/dist-packages/vllm/attention/ops/triton_unified_attention.py":266:23)
#loc121 = loc("/usr/local/lib/python3.12/dist-packages/vllm/attention/ops/triton_unified_attention.py":269:26)
#loc122 = loc("/usr/local/lib/python3.12/dist-packages/vllm/attention/ops/triton_unified_attention.py":269:20)
#loc123 = loc("/usr/local/lib/python3.12/dist-packages/vllm/attention/ops/triton_unified_attention.py":272:16)
#loc124 = loc("/usr/local/lib/python3.12/dist-packages/vllm/attention/ops/triton_unified_attention.py":272:24)
#loc125 = loc("/usr/local/lib/python3.12/dist-packages/vllm/attention/ops/triton_unified_attention.py":276:27)
#loc126 = loc("/usr/local/lib/python3.12/dist-packages/vllm/attention/ops/triton_unified_attention.py":276:37)
#loc127 = loc("/usr/local/lib/python3.12/dist-packages/vllm/attention/ops/triton_unified_attention.py":276:8)
#loc128 = loc("/usr/local/lib/python3.12/dist-packages/vllm/attention/ops/triton_unified_attention.py":279:18)
#loc129 = loc("/usr/local/lib/python3.12/dist-packages/vllm/attention/ops/triton_unified_attention.py":279:16)
#loc130 = loc("/usr/local/lib/python3.12/dist-packages/vllm/attention/ops/triton_unified_attention.py":284:47)
#loc131 = loc("/usr/local/lib/python3.12/dist-packages/vllm/attention/ops/triton_unified_attention.py":285:47)
#loc132 = loc("/usr/local/lib/python3.12/dist-packages/vllm/attention/ops/triton_unified_attention.py":285:21)
#loc133 = loc("/usr/local/lib/python3.12/dist-packages/vllm/attention/ops/triton_unified_attention.py":286:21)
#loc134 = loc("/usr/local/lib/python3.12/dist-packages/vllm/attention/ops/triton_unified_attention.py":289:21)
#loc135 = loc("/usr/local/lib/python3.12/dist-packages/vllm/attention/ops/triton_unified_attention.py":290:8)
#loc136 = loc("/usr/local/lib/python3.12/dist-packages/vllm/attention/ops/triton_unified_attention.py":288:4)
#loc137 = loc(callsite(#loc4 at #loc5))
#loc138 = loc(callsite(#loc6 at #loc5))
#loc140 = loc(callsite(#loc7 at #loc5))
#loc141 = loc(callsite(#loc8 at #loc5))
#loc142 = loc(callsite(#loc9 at #loc5))
#loc143 = loc(callsite(#loc10 at #loc5))
#loc144 = loc(callsite(#loc11 at #loc5))
#loc145 = loc(callsite(#loc12 at #loc5))
#loc146 = loc(callsite(#loc13 at #loc5))
#loc147 = loc(callsite(#loc14 at #loc5))
#loc148 = loc(callsite(#loc15 at #loc5))
#loc149 = loc(callsite(#loc16 at #loc5))
#loc150 = loc(callsite(#loc17 at #loc5))
#loc151 = loc(callsite(#loc67 at #loc68))
#loc152 = loc(callsite(#loc69 at #loc68))
#loc153 = loc(callsite(#loc107 at #loc108))
#loc155 = loc(callsite(#loc109 at #loc107))
#loc156 = loc(callsite(#loc116 at #loc117))
#loc158 = loc(callsite(#loc118 at #loc116))
#loc159 = loc(callsite(#loc155 at #loc108))
#loc160 = loc(callsite(#loc158 at #loc117))
