#loc = loc("/usr/local/lib/python3.12/dist-packages/vllm/attention/ops/triton_unified_attention.py":540:0)
#loc1 = loc(unknown)
#loc5 = loc("/usr/local/lib/python3.12/dist-packages/vllm/attention/ops/triton_unified_attention.py":567:36)
#loc39 = loc("/usr/local/lib/python3.12/dist-packages/vllm/attention/ops/triton_unified_attention.py":591:25)
#loc47 = loc("/usr/local/lib/python3.12/dist-packages/vllm/attention/ops/triton_unified_attention.py":598:28)
#loc64 = loc("/usr/local/lib/python3.12/dist-packages/vllm/attention/ops/triton_unified_attention.py":613:21)
#loc77 = loc(callsite(#loc1 at #loc5))
#loc93 = loc(callsite(#loc1 at #loc39))
#loc96 = loc(callsite(#loc1 at #loc47))
#loc99 = loc(callsite(#loc1 at #loc64))
module {
  tt.func public @reduce_segments(%arg0: !tt.ptr<bf16> {tt.divisibility = 16 : i32, tt.pointer_range = 32 : i32} loc("/usr/local/lib/python3.12/dist-packages/vllm/attention/ops/triton_unified_attention.py":540:0), %arg1: !tt.ptr<f32> {tt.divisibility = 16 : i32, tt.pointer_range = 32 : i32} loc("/usr/local/lib/python3.12/dist-packages/vllm/attention/ops/triton_unified_attention.py":540:0), %arg2: !tt.ptr<f32> {tt.divisibility = 16 : i32, tt.pointer_range = 32 : i32} loc("/usr/local/lib/python3.12/dist-packages/vllm/attention/ops/triton_unified_attention.py":540:0), %arg3: !tt.ptr<f32> {tt.divisibility = 16 : i32, tt.pointer_range = 32 : i32} loc("/usr/local/lib/python3.12/dist-packages/vllm/attention/ops/triton_unified_attention.py":540:0), %arg4: !tt.ptr<i32> {tt.divisibility = 16 : i32, tt.pointer_range = 32 : i32} loc("/usr/local/lib/python3.12/dist-packages/vllm/attention/ops/triton_unified_attention.py":540:0), %arg5: i64 {tt.divisibility = 16 : i32} loc("/usr/local/lib/python3.12/dist-packages/vllm/attention/ops/triton_unified_attention.py":540:0), %arg6: i64 {tt.divisibility = 16 : i32} loc("/usr/local/lib/python3.12/dist-packages/vllm/attention/ops/triton_unified_attention.py":540:0), %arg7: i64 {tt.divisibility = 16 : i32} loc("/usr/local/lib/python3.12/dist-packages/vllm/attention/ops/triton_unified_attention.py":540:0), %arg8: !tt.ptr<i32> {tt.divisibility = 16 : i32, tt.pointer_range = 32 : i32} loc("/usr/local/lib/python3.12/dist-packages/vllm/attention/ops/triton_unified_attention.py":540:0)) attributes {noinline = false} {
    %c255_i32 = arith.constant 255 : i32 loc(#loc1)
    %c1_i32 = arith.constant 1 : i32 loc(#loc1)
    %c0_i32 = arith.constant 0 : i32 loc(#loc1)
    %c2_i32 = arith.constant 2 : i32 loc(#loc1)
    %c256_i32 = arith.constant 256 : i32 loc(#loc1)
    %cst = arith.constant dense<0.000000e+00> : tensor<128xf32> loc(#loc1)
    %cst_0 = arith.constant dense<0.000000e+00> : tensor<16x128xf32> loc(#loc1)
    %cst_1 = arith.constant dense<128> : tensor<16x1xi32> loc(#loc1)
    %c2048_i32 = arith.constant 2048 : i32 loc(#loc1)
    %c65536_i64 = arith.constant 65536 : i64 loc(#loc1)
    %cst_2 = arith.constant dense<0.000000e+00> : tensor<16xf32> loc(#loc1)
    %cst_3 = arith.constant 0.000000e+00 : f32 loc(#loc1)
    %cst_4 = arith.constant dense<0xFF800000> : tensor<16xf32> loc(#loc1)
    %c512_i64 = arith.constant 512 : i64 loc(#loc1)
    %cst_5 = arith.constant dense<0> : tensor<128xi32> loc(#loc1)
    %cst_6 = arith.constant dense<1> : tensor<128xi32> loc(#loc1)
    %cst_7 = arith.constant dense<128> : tensor<128xi32> loc(#loc1)
    %c16_i32 = arith.constant 16 : i32 loc(#loc1)
    %0 = tt.get_program_id x : i32 loc(#loc2)
    %1 = tt.get_program_id y : i32 loc(#loc3)
    %2:2 = scf.while (%arg9 = %c0_i32, %arg10 = %c1_i32) : (i32, i32) -> (i32, i32) {
      %80 = arith.cmpi slt, %arg9, %arg10 : i32 loc(#loc76)
      scf.condition(%80) %arg9, %arg10 : i32, i32 loc(#loc76)
    } do {
    ^bb0(%arg9: i32 loc(callsite(#loc1 at #loc5)), %arg10: i32 loc(callsite(#loc1 at #loc5))):
      %80 = arith.addi %arg9, %arg10 : i32 loc(#loc78)
      %81 = arith.divsi %80, %c2_i32 : i32 loc(#loc79)
      %82 = tt.addptr %arg8, %81 : !tt.ptr<i32>, i32 loc(#loc80)
      %83 = tt.load %82 : !tt.ptr<i32> loc(#loc81)
      %84 = arith.cmpi sle, %83, %0 : i32 loc(#loc82)
      %85 = arith.select %84, %arg10, %81 : i32 loc(#loc83)
      %86 = scf.if %84 -> (i32) {
        %87 = arith.addi %81, %c1_i32 : i32 loc(#loc84)
        scf.yield %87 : i32 loc(#loc84)
      } else {
        scf.yield %arg9 : i32 loc(#loc77)
      } loc(#loc83)
      scf.yield %86, %85 : i32, i32 loc(#loc85)
    } loc(#loc75)
    %3 = arith.subi %2#0, %c1_i32 : i32 loc(#loc86)
    %4 = tt.addptr %arg4, %3 : !tt.ptr<i32>, i32 loc(#loc16)
    %5 = tt.load %4 : !tt.ptr<i32> loc(#loc17)
    %6 = arith.addi %5, %c255_i32 : i32 loc(#loc87)
    %7 = arith.divsi %6, %c256_i32 : i32 loc(#loc88)
    %8 = arith.muli %7, %c16_i32 : i32 loc(#loc21)
    %9 = arith.addi %5, %8 : i32 loc(#loc89)
    %10 = arith.subi %9, %c1_i32 : i32 loc(#loc90)
    %11 = arith.divsi %10, %8 : i32 loc(#loc91)
    %12 = tt.make_range {end = 16 : i32, start = 0 : i32} : tensor<16xi32> loc(#loc24)
    %13 = tt.splat %11 : i32 -> tensor<16xi32> loc(#loc25)
    %14 = arith.cmpi slt, %12, %13 : tensor<16xi32> loc(#loc26)
    %15 = tt.make_range {end = 128 : i32, start = 0 : i32} : tensor<128xi32> loc(#loc27)
    %16 = arith.cmpi slt, %15, %cst_7 : tensor<128xi32> loc(#loc28)
    %17 = arith.select %16, %cst_6, %cst_5 : tensor<128xi1>, tensor<128xi32> loc(#loc29)
    %18 = arith.cmpi ne, %17, %cst_5 : tensor<128xi32> loc(#loc30)
    %19 = arith.extsi %0 : i32 to i64 loc(#loc31)
    %20 = arith.muli %19, %c512_i64 : i64 loc(#loc32)
    %21 = arith.muli %1, %c16_i32 : i32 loc(#loc33)
    %22 = arith.extsi %21 : i32 to i64 loc(#loc34)
    %23 = arith.addi %20, %22 : i64 loc(#loc34)
    %24 = arith.extsi %12 : tensor<16xi32> to tensor<16xi64> loc(#loc35)
    %25 = tt.splat %23 : i64 -> tensor<16xi64> loc(#loc35)
    %26 = arith.addi %25, %24 : tensor<16xi64> loc(#loc35)
    %27 = tt.splat %arg2 : !tt.ptr<f32> -> tensor<16x!tt.ptr<f32>> loc(#loc36)
    %28 = tt.addptr %27, %26 : tensor<16x!tt.ptr<f32>>, tensor<16xi64> loc(#loc36)
    %29 = tt.load %28, %14, %cst_4 : tensor<16x!tt.ptr<f32>> loc(#loc37)
    %30 = "tt.reduce"(%29) <{axis = 0 : i32}> ({
    ^bb0(%arg9: f32 loc(callsite(#loc1 at #loc39)), %arg10: f32 loc(callsite(#loc1 at #loc39))):
      %80 = arith.maxnumf %arg9, %arg10 : f32 loc(#loc100)
      tt.reduce.return %80 : f32 loc(#loc92)
    }) : (tensor<16xf32>) -> f32 loc(#loc92)
    %31 = tt.splat %arg3 : !tt.ptr<f32> -> tensor<16x!tt.ptr<f32>> loc(#loc41)
    %32 = tt.addptr %31, %26 : tensor<16x!tt.ptr<f32>>, tensor<16xi64> loc(#loc41)
    %33 = tt.load %32, %14, %cst_2 : tensor<16x!tt.ptr<f32>> loc(#loc42)
    %34 = tt.splat %30 : f32 -> tensor<16xf32> loc(#loc43)
    %35 = arith.subf %29, %34 : tensor<16xf32> loc(#loc43)
    %36 = math.exp %35 : tensor<16xf32> loc(#loc44)
    %37 = arith.mulf %33, %36 : tensor<16xf32> loc(#loc45)
    %38 = "tt.reduce"(%37) <{axis = 0 : i32}> ({
    ^bb0(%arg9: f32 loc(callsite(#loc1 at #loc47)), %arg10: f32 loc(callsite(#loc1 at #loc47))):
      %80 = arith.addf %arg9, %arg10 : f32 loc(#loc101)
      tt.reduce.return %80 : f32 loc(#loc95)
    }) : (tensor<16xf32>) -> f32 loc(#loc95)
    %39 = arith.muli %19, %c65536_i64 : i64 loc(#loc49)
    %40 = arith.muli %1, %c2048_i32 : i32 loc(#loc50)
    %41 = arith.extsi %40 : i32 to i64 loc(#loc51)
    %42 = arith.addi %39, %41 : i64 loc(#loc51)
    %43 = tt.expand_dims %12 {axis = 1 : i32} : tensor<16xi32> -> tensor<16x1xi32> loc(#loc52)
    %44 = arith.muli %43, %cst_1 : tensor<16x1xi32> loc(#loc53)
    %45 = arith.extsi %44 : tensor<16x1xi32> to tensor<16x1xi64> loc(#loc54)
    %46 = tt.splat %42 : i64 -> tensor<16x1xi64> loc(#loc54)
    %47 = arith.addi %46, %45 : tensor<16x1xi64> loc(#loc54)
    %48 = tt.expand_dims %15 {axis = 0 : i32} : tensor<128xi32> -> tensor<1x128xi32> loc(#loc55)
    %49 = arith.extsi %48 : tensor<1x128xi32> to tensor<1x128xi64> loc(#loc56)
    %50 = tt.broadcast %47 : tensor<16x1xi64> -> tensor<16x128xi64> loc(#loc56)
    %51 = tt.broadcast %49 : tensor<1x128xi64> -> tensor<16x128xi64> loc(#loc56)
    %52 = arith.addi %50, %51 : tensor<16x128xi64> loc(#loc56)
    %53 = tt.expand_dims %14 {axis = 1 : i32} : tensor<16xi1> -> tensor<16x1xi1> loc(#loc57)
    %54 = tt.expand_dims %18 {axis = 0 : i32} : tensor<128xi1> -> tensor<1x128xi1> loc(#loc58)
    %55 = tt.broadcast %53 : tensor<16x1xi1> -> tensor<16x128xi1> loc(#loc59)
    %56 = tt.broadcast %54 : tensor<1x128xi1> -> tensor<16x128xi1> loc(#loc59)
    %57 = arith.andi %55, %56 : tensor<16x128xi1> loc(#loc59)
    %58 = tt.splat %arg1 : !tt.ptr<f32> -> tensor<16x128x!tt.ptr<f32>> loc(#loc60)
    %59 = tt.addptr %58, %52 : tensor<16x128x!tt.ptr<f32>>, tensor<16x128xi64> loc(#loc60)
    %60 = tt.load %59, %57, %cst_0 : tensor<16x128x!tt.ptr<f32>> loc(#loc61)
    %61 = tt.expand_dims %36 {axis = 1 : i32} : tensor<16xf32> -> tensor<16x1xf32> loc(#loc62)
    %62 = tt.broadcast %61 : tensor<16x1xf32> -> tensor<16x128xf32> loc(#loc63)
    %63 = arith.mulf %60, %62 : tensor<16x128xf32> loc(#loc63)
    %64 = "tt.reduce"(%63) <{axis = 0 : i32}> ({
    ^bb0(%arg9: f32 loc(callsite(#loc1 at #loc64)), %arg10: f32 loc(callsite(#loc1 at #loc64))):
      %80 = arith.addf %arg9, %arg10 : f32 loc(#loc102)
      tt.reduce.return %80 : f32 loc(#loc98)
    }) : (tensor<16x128xf32>) -> tensor<128xf32> loc(#loc98)
    %65 = arith.cmpf oeq, %38, %cst_3 : f32 loc(#loc65)
    %66 = tt.splat %38 : f32 -> tensor<128xf32> loc(#loc66)
    %67 = arith.divf %64, %66 : tensor<128xf32> loc(#loc66)
    %68 = tt.splat %65 : i1 -> tensor<128xi1> loc(#loc67)
    %69 = arith.select %68, %cst, %67 : tensor<128xi1>, tensor<128xf32> loc(#loc67)
    %70 = arith.muli %19, %arg5 : i64 loc(#loc68)
    %71 = arith.extsi %1 : i32 to i64 loc(#loc69)
    %72 = arith.muli %71, %arg6 : i64 loc(#loc69)
    %73 = arith.addi %70, %72 : i64 loc(#loc70)
    %74 = arith.extsi %15 : tensor<128xi32> to tensor<128xi64> loc(#loc71)
    %75 = tt.splat %73 : i64 -> tensor<128xi64> loc(#loc71)
    %76 = arith.addi %75, %74 : tensor<128xi64> loc(#loc71)
    %77 = tt.splat %arg0 : !tt.ptr<bf16> -> tensor<128x!tt.ptr<bf16>> loc(#loc72)
    %78 = tt.addptr %77, %76 : tensor<128x!tt.ptr<bf16>>, tensor<128xi64> loc(#loc72)
    %79 = arith.truncf %69 : tensor<128xf32> to tensor<128xbf16> loc(#loc73)
    tt.store %78, %79, %18 : tensor<128x!tt.ptr<bf16>> loc(#loc73)
    tt.return loc(#loc74)
  } loc(#loc)
} loc(#loc)
#loc2 = loc("/usr/local/lib/python3.12/dist-packages/vllm/attention/ops/triton_unified_attention.py":563:36)
#loc3 = loc("/usr/local/lib/python3.12/dist-packages/vllm/attention/ops/triton_unified_attention.py":564:35)
#loc4 = loc("/usr/local/lib/python3.12/dist-packages/vllm/attention/ops/triton_unified_attention.py":38:4)
#loc6 = loc("/usr/local/lib/python3.12/dist-packages/vllm/attention/ops/triton_unified_attention.py":38:17)
#loc7 = loc("/usr/local/lib/python3.12/dist-packages/vllm/attention/ops/triton_unified_attention.py":39:22)
#loc8 = loc("/usr/local/lib/python3.12/dist-packages/vllm/attention/ops/triton_unified_attention.py":39:32)
#loc9 = loc("/usr/local/lib/python3.12/dist-packages/vllm/attention/ops/triton_unified_attention.py":40:44)
#loc10 = loc("/usr/local/lib/python3.12/dist-packages/vllm/attention/ops/triton_unified_attention.py":40:22)
#loc11 = loc("/usr/local/lib/python3.12/dist-packages/vllm/attention/ops/triton_unified_attention.py":43:22)
#loc12 = loc("/usr/local/lib/python3.12/dist-packages/vllm/attention/ops/triton_unified_attention.py":43:11)
#loc13 = loc("/usr/local/lib/python3.12/dist-packages/vllm/attention/ops/triton_unified_attention.py":44:25)
#loc14 = loc("/usr/local/lib/python3.12/dist-packages/vllm/attention/ops/triton_unified_attention.py":43:8)
#loc15 = loc("/usr/local/lib/python3.12/dist-packages/vllm/attention/ops/triton_unified_attention.py":48:18)
#loc16 = loc("/usr/local/lib/python3.12/dist-packages/vllm/attention/ops/triton_unified_attention.py":570:37)
#loc17 = loc("/usr/local/lib/python3.12/dist-packages/vllm/attention/ops/triton_unified_attention.py":570:22)
#loc18 = loc("/usr/local/lib/python3.12/dist-packages/vllm/attention/ops/triton_unified_attention.py":22:20)
#loc19 = loc("/usr/local/lib/python3.12/dist-packages/vllm/attention/ops/triton_unified_attention.py":574:42)
#loc20 = loc("/usr/local/lib/python3.12/dist-packages/vllm/attention/ops/triton_unified_attention.py":22:26)
#loc21 = loc("/usr/local/lib/python3.12/dist-packages/vllm/attention/ops/triton_unified_attention.py":577:61)
#loc22 = loc("/usr/local/lib/python3.12/dist-packages/vllm/attention/ops/triton_unified_attention.py":22:16)
#loc23 = loc("/usr/local/lib/python3.12/dist-packages/vllm/attention/ops/triton_unified_attention.py":577:40)
#loc24 = loc("/usr/local/lib/python3.12/dist-packages/vllm/attention/ops/triton_unified_attention.py":578:29)
#loc25 = loc("/usr/local/lib/python3.12/dist-packages/vllm/attention/ops/triton_unified_attention.py":579:32)
#loc26 = loc("/usr/local/lib/python3.12/dist-packages/vllm/attention/ops/triton_unified_attention.py":578:53)
#loc27 = loc("/usr/local/lib/python3.12/dist-packages/vllm/attention/ops/triton_unified_attention.py":580:37)
#loc28 = loc("/usr/local/lib/python3.12/dist-packages/vllm/attention/ops/triton_unified_attention.py":580:57)
#loc29 = loc("/usr/local/lib/python3.12/dist-packages/vllm/attention/ops/triton_unified_attention.py":581:24)
#loc30 = loc("/usr/local/lib/python3.12/dist-packages/vllm/attention/ops/triton_unified_attention.py":581:30)
#loc31 = loc("/usr/local/lib/python3.12/dist-packages/vllm/attention/ops/triton_unified_attention.py":584:38)
#loc32 = loc("/usr/local/lib/python3.12/dist-packages/vllm/attention/ops/triton_unified_attention.py":585:20)
#loc33 = loc("/usr/local/lib/python3.12/dist-packages/vllm/attention/ops/triton_unified_attention.py":586:36)
#loc34 = loc("/usr/local/lib/python3.12/dist-packages/vllm/attention/ops/triton_unified_attention.py":586:19)
#loc35 = loc("/usr/local/lib/python3.12/dist-packages/vllm/attention/ops/triton_unified_attention.py":587:19)
#loc36 = loc("/usr/local/lib/python3.12/dist-packages/vllm/attention/ops/triton_unified_attention.py":588:38)
#loc37 = loc("/usr/local/lib/python3.12/dist-packages/vllm/attention/ops/triton_unified_attention.py":588:23)
#loc38 = loc("/usr/local/lib/python3.12/dist-packages/triton/language/standard.py":184:40)
#loc40 = loc("/usr/local/lib/python3.12/dist-packages/triton/language/standard.py":163:27)
#loc41 = loc("/usr/local/lib/python3.12/dist-packages/vllm/attention/ops/triton_unified_attention.py":594:44)
#loc42 = loc("/usr/local/lib/python3.12/dist-packages/vllm/attention/ops/triton_unified_attention.py":594:26)
#loc43 = loc("/usr/local/lib/python3.12/dist-packages/vllm/attention/ops/triton_unified_attention.py":597:50)
#loc44 = loc("/usr/local/lib/python3.12/dist-packages/vllm/attention/ops/triton_unified_attention.py":597:39)
#loc45 = loc("/usr/local/lib/python3.12/dist-packages/vllm/attention/ops/triton_unified_attention.py":597:32)
#loc46 = loc("/usr/local/lib/python3.12/dist-packages/triton/language/standard.py":267:36)
#loc48 = loc("/usr/local/lib/python3.12/dist-packages/triton/language/standard.py":256:15)
#loc49 = loc("/usr/local/lib/python3.12/dist-packages/vllm/attention/ops/triton_unified_attention.py":603:9)
#loc50 = loc("/usr/local/lib/python3.12/dist-packages/vllm/attention/ops/triton_unified_attention.py":604:26)
#loc51 = loc("/usr/local/lib/python3.12/dist-packages/vllm/attention/ops/triton_unified_attention.py":604:8)
#loc52 = loc("/usr/local/lib/python3.12/dist-packages/vllm/attention/ops/triton_unified_attention.py":605:43)
#loc53 = loc("/usr/local/lib/python3.12/dist-packages/vllm/attention/ops/triton_unified_attention.py":605:54)
#loc54 = loc("/usr/local/lib/python3.12/dist-packages/vllm/attention/ops/triton_unified_attention.py":605:8)
#loc55 = loc("/usr/local/lib/python3.12/dist-packages/vllm/attention/ops/triton_unified_attention.py":606:39)
#loc56 = loc("/usr/local/lib/python3.12/dist-packages/vllm/attention/ops/triton_unified_attention.py":606:8)
#loc57 = loc("/usr/local/lib/python3.12/dist-packages/vllm/attention/ops/triton_unified_attention.py":609:23)
#loc58 = loc("/usr/local/lib/python3.12/dist-packages/vllm/attention/ops/triton_unified_attention.py":609:43)
#loc59 = loc("/usr/local/lib/python3.12/dist-packages/vllm/attention/ops/triton_unified_attention.py":609:34)
#loc60 = loc("/usr/local/lib/python3.12/dist-packages/vllm/attention/ops/triton_unified_attention.py":608:26)
#loc61 = loc("/usr/local/lib/python3.12/dist-packages/vllm/attention/ops/triton_unified_attention.py":608:8)
#loc62 = loc("/usr/local/lib/python3.12/dist-packages/vllm/attention/ops/triton_unified_attention.py":612:50)
#loc63 = loc("/usr/local/lib/python3.12/dist-packages/vllm/attention/ops/triton_unified_attention.py":612:19)
#loc65 = loc("/usr/local/lib/python3.12/dist-packages/vllm/attention/ops/triton_unified_attention.py":615:37)
#loc66 = loc("/usr/local/lib/python3.12/dist-packages/vllm/attention/ops/triton_unified_attention.py":615:57)
#loc67 = loc("/usr/local/lib/python3.12/dist-packages/vllm/attention/ops/triton_unified_attention.py":615:47)
#loc68 = loc("/usr/local/lib/python3.12/dist-packages/vllm/attention/ops/triton_unified_attention.py":622:39)
#loc69 = loc("/usr/local/lib/python3.12/dist-packages/vllm/attention/ops/triton_unified_attention.py":623:38)
#loc70 = loc("/usr/local/lib/python3.12/dist-packages/vllm/attention/ops/triton_unified_attention.py":623:21)
#loc71 = loc("/usr/local/lib/python3.12/dist-packages/vllm/attention/ops/triton_unified_attention.py":624:21)
#loc72 = loc("/usr/local/lib/python3.12/dist-packages/vllm/attention/ops/triton_unified_attention.py":625:26)
#loc73 = loc("/usr/local/lib/python3.12/dist-packages/vllm/attention/ops/triton_unified_attention.py":625:41)
#loc74 = loc("/usr/local/lib/python3.12/dist-packages/vllm/attention/ops/triton_unified_attention.py":625:4)
#loc75 = loc(callsite(#loc4 at #loc5))
#loc76 = loc(callsite(#loc6 at #loc5))
#loc78 = loc(callsite(#loc7 at #loc5))
#loc79 = loc(callsite(#loc8 at #loc5))
#loc80 = loc(callsite(#loc9 at #loc5))
#loc81 = loc(callsite(#loc10 at #loc5))
#loc82 = loc(callsite(#loc11 at #loc5))
#loc83 = loc(callsite(#loc12 at #loc5))
#loc84 = loc(callsite(#loc13 at #loc5))
#loc85 = loc(callsite(#loc14 at #loc5))
#loc86 = loc(callsite(#loc15 at #loc5))
#loc87 = loc(callsite(#loc18 at #loc19))
#loc88 = loc(callsite(#loc20 at #loc19))
#loc89 = loc(callsite(#loc22 at #loc23))
#loc90 = loc(callsite(#loc18 at #loc23))
#loc91 = loc(callsite(#loc20 at #loc23))
#loc92 = loc(callsite(#loc38 at #loc39))
#loc94 = loc(callsite(#loc40 at #loc38))
#loc95 = loc(callsite(#loc46 at #loc47))
#loc97 = loc(callsite(#loc48 at #loc46))
#loc98 = loc(callsite(#loc46 at #loc64))
#loc100 = loc(callsite(#loc94 at #loc39))
#loc101 = loc(callsite(#loc97 at #loc47))
#loc102 = loc(callsite(#loc97 at #loc64))
