#loc = loc("/home/vllm/.cache/vllm/torch_compile_cache/51fb6da286/rank_0_0/inductor_cache/k6/ck67xyn7nz4hq2ybqarel4ww7yo7ksdmqk7gyof3m7e6pl55yeju.py":19:0)
module {
  tt.func public @triton_poi_fused__to_copy_embedding_0(%arg0: !tt.ptr<i32> {tt.divisibility = 16 : i32} loc("/home/vllm/.cache/vllm/torch_compile_cache/51fb6da286/rank_0_0/inductor_cache/k6/ck67xyn7nz4hq2ybqarel4ww7yo7ksdmqk7gyof3m7e6pl55yeju.py":19:0), %arg1: !tt.ptr<bf16> {tt.divisibility = 16 : i32} loc("/home/vllm/.cache/vllm/torch_compile_cache/51fb6da286/rank_0_0/inductor_cache/k6/ck67xyn7nz4hq2ybqarel4ww7yo7ksdmqk7gyof3m7e6pl55yeju.py":19:0), %arg2: !tt.ptr<bf16> {tt.divisibility = 16 : i32} loc("/home/vllm/.cache/vllm/torch_compile_cache/51fb6da286/rank_0_0/inductor_cache/k6/ck67xyn7nz4hq2ybqarel4ww7yo7ksdmqk7gyof3m7e6pl55yeju.py":19:0), %arg3: i32 {tt.divisibility = 16 : i32} loc("/home/vllm/.cache/vllm/torch_compile_cache/51fb6da286/rank_0_0/inductor_cache/k6/ck67xyn7nz4hq2ybqarel4ww7yo7ksdmqk7gyof3m7e6pl55yeju.py":19:0)) attributes {noinline = false} {
    %cst = arith.constant dense<0> : tensor<1024xi64> loc(#loc1)
    %cst_0 = arith.constant dense<128256> : tensor<1024xi64> loc(#loc1)
    %cst_1 = arith.constant dense<4096> : tensor<1024xi64> loc(#loc1)
    %cst_2 = arith.constant dense<4096> : tensor<1024xi32> loc(#loc1)
    %c1024_i32 = arith.constant 1024 : i32 loc(#loc1)
    %0 = tt.get_program_id x : i32 loc(#loc2)
    %1 = arith.muli %0, %c1024_i32 : i32 loc(#loc3)
    %2 = tt.make_range {end = 1024 : i32, start = 0 : i32} : tensor<1024xi32> loc(#loc4)
    %3 = tt.splat %1 : i32 -> tensor<1024xi32> loc(#loc5)
    %4 = arith.addi %3, %2 : tensor<1024xi32> loc(#loc5)
    %5 = arith.divsi %4, %cst_2 : tensor<1024xi32> loc(#loc6)
    %6 = arith.remsi %4, %cst_2 : tensor<1024xi32> loc(#loc7)
    %7 = tt.splat %arg0 : !tt.ptr<i32> -> tensor<1024x!tt.ptr<i32>> loc(#loc8)
    %8 = tt.addptr %7, %5 : tensor<1024x!tt.ptr<i32>>, tensor<1024xi32> loc(#loc8)
    %9 = tt.load %8 evictionPolicy = evict_last : tensor<1024x!tt.ptr<i32>> loc(#loc9)
    %10 = arith.extsi %9 : tensor<1024xi32> to tensor<1024xi64> loc(#loc10)
    %11 = arith.addi %10, %cst_0 : tensor<1024xi64> loc(#loc11)
    %12 = arith.cmpi slt, %10, %cst : tensor<1024xi64> loc(#loc12)
    %13 = arith.select %12, %11, %10 : tensor<1024xi1>, tensor<1024xi64> loc(#loc13)
    %14 = arith.muli %13, %cst_1 : tensor<1024xi64> loc(#loc14)
    %15 = arith.extsi %6 : tensor<1024xi32> to tensor<1024xi64> loc(#loc15)
    %16 = arith.addi %15, %14 : tensor<1024xi64> loc(#loc15)
    %17 = tt.splat %arg1 : !tt.ptr<bf16> -> tensor<1024x!tt.ptr<bf16>> loc(#loc16)
    %18 = tt.addptr %17, %16 : tensor<1024x!tt.ptr<bf16>>, tensor<1024xi64> loc(#loc16)
    %19 = tt.load %18 : tensor<1024x!tt.ptr<bf16>> loc(#loc17)
    %20 = arith.extf %19 : tensor<1024xbf16> to tensor<1024xf32> loc(#loc18)
    %21 = tt.splat %arg2 : !tt.ptr<bf16> -> tensor<1024x!tt.ptr<bf16>> loc(#loc19)
    %22 = tt.addptr %21, %4 : tensor<1024x!tt.ptr<bf16>>, tensor<1024xi32> loc(#loc19)
    %23 = arith.truncf %20 : tensor<1024xf32> to tensor<1024xbf16> loc(#loc20)
    tt.store %22, %23 : tensor<1024x!tt.ptr<bf16>> loc(#loc20)
    tt.return loc(#loc21)
  } loc(#loc)
} loc(#loc)
#loc1 = loc(unknown)
#loc2 = loc("/home/vllm/.cache/vllm/torch_compile_cache/51fb6da286/rank_0_0/inductor_cache/k6/ck67xyn7nz4hq2ybqarel4ww7yo7ksdmqk7gyof3m7e6pl55yeju.py":20:28)
#loc3 = loc("/home/vllm/.cache/vllm/torch_compile_cache/51fb6da286/rank_0_0/inductor_cache/k6/ck67xyn7nz4hq2ybqarel4ww7yo7ksdmqk7gyof3m7e6pl55yeju.py":20:33)
#loc4 = loc("/home/vllm/.cache/vllm/torch_compile_cache/51fb6da286/rank_0_0/inductor_cache/k6/ck67xyn7nz4hq2ybqarel4ww7yo7ksdmqk7gyof3m7e6pl55yeju.py":21:36)
#loc5 = loc("/home/vllm/.cache/vllm/torch_compile_cache/51fb6da286/rank_0_0/inductor_cache/k6/ck67xyn7nz4hq2ybqarel4ww7yo7ksdmqk7gyof3m7e6pl55yeju.py":21:23)
#loc6 = loc("/home/vllm/.cache/vllm/torch_compile_cache/51fb6da286/rank_0_0/inductor_cache/k6/ck67xyn7nz4hq2ybqarel4ww7yo7ksdmqk7gyof3m7e6pl55yeju.py":23:19)
#loc7 = loc("/home/vllm/.cache/vllm/torch_compile_cache/51fb6da286/rank_0_0/inductor_cache/k6/ck67xyn7nz4hq2ybqarel4ww7yo7ksdmqk7gyof3m7e6pl55yeju.py":24:19)
#loc8 = loc("/home/vllm/.cache/vllm/torch_compile_cache/51fb6da286/rank_0_0/inductor_cache/k6/ck67xyn7nz4hq2ybqarel4ww7yo7ksdmqk7gyof3m7e6pl55yeju.py":26:30)
#loc9 = loc("/home/vllm/.cache/vllm/torch_compile_cache/51fb6da286/rank_0_0/inductor_cache/k6/ck67xyn7nz4hq2ybqarel4ww7yo7ksdmqk7gyof3m7e6pl55yeju.py":26:35)
#loc10 = loc("/home/vllm/.cache/vllm/torch_compile_cache/51fb6da286/rank_0_0/inductor_cache/k6/ck67xyn7nz4hq2ybqarel4ww7yo7ksdmqk7gyof3m7e6pl55yeju.py":27:19)
#loc11 = loc("/home/vllm/.cache/vllm/torch_compile_cache/51fb6da286/rank_0_0/inductor_cache/k6/ck67xyn7nz4hq2ybqarel4ww7yo7ksdmqk7gyof3m7e6pl55yeju.py":29:18)
#loc12 = loc("/home/vllm/.cache/vllm/torch_compile_cache/51fb6da286/rank_0_0/inductor_cache/k6/ck67xyn7nz4hq2ybqarel4ww7yo7ksdmqk7gyof3m7e6pl55yeju.py":30:18)
#loc13 = loc("/home/vllm/.cache/vllm/torch_compile_cache/51fb6da286/rank_0_0/inductor_cache/k6/ck67xyn7nz4hq2ybqarel4ww7yo7ksdmqk7gyof3m7e6pl55yeju.py":31:32)
#loc14 = loc("/home/vllm/.cache/vllm/torch_compile_cache/51fb6da286/rank_0_0/inductor_cache/k6/ck67xyn7nz4hq2ybqarel4ww7yo7ksdmqk7gyof3m7e6pl55yeju.py":33:40)
#loc15 = loc("/home/vllm/.cache/vllm/torch_compile_cache/51fb6da286/rank_0_0/inductor_cache/k6/ck67xyn7nz4hq2ybqarel4ww7yo7ksdmqk7gyof3m7e6pl55yeju.py":33:35)
#loc16 = loc("/home/vllm/.cache/vllm/torch_compile_cache/51fb6da286/rank_0_0/inductor_cache/k6/ck67xyn7nz4hq2ybqarel4ww7yo7ksdmqk7gyof3m7e6pl55yeju.py":33:30)
#loc17 = loc("/home/vllm/.cache/vllm/torch_compile_cache/51fb6da286/rank_0_0/inductor_cache/k6/ck67xyn7nz4hq2ybqarel4ww7yo7ksdmqk7gyof3m7e6pl55yeju.py":33:47)
#loc18 = loc("/home/vllm/.cache/vllm/torch_compile_cache/51fb6da286/rank_0_0/inductor_cache/k6/ck67xyn7nz4hq2ybqarel4ww7yo7ksdmqk7gyof3m7e6pl55yeju.py":33:56)
#loc19 = loc("/home/vllm/.cache/vllm/torch_compile_cache/51fb6da286/rank_0_0/inductor_cache/k6/ck67xyn7nz4hq2ybqarel4ww7yo7ksdmqk7gyof3m7e6pl55yeju.py":34:25)
#loc20 = loc("/home/vllm/.cache/vllm/torch_compile_cache/51fb6da286/rank_0_0/inductor_cache/k6/ck67xyn7nz4hq2ybqarel4ww7yo7ksdmqk7gyof3m7e6pl55yeju.py":34:36)
#loc21 = loc("/home/vllm/.cache/vllm/torch_compile_cache/51fb6da286/rank_0_0/inductor_cache/k6/ck67xyn7nz4hq2ybqarel4ww7yo7ksdmqk7gyof3m7e6pl55yeju.py":34:4)
