#loc = loc("/home/vllm/.cache/vllm/torch_compile_cache/51fb6da286/rank_0_0/inductor_cache/zf/czfblgicyct7dbaobrfr466qlzquxd4roqhj7g3nsfc2tcfmvhyi.py":19:0)
module {
  tt.func public @triton_poi_fused_cat_2(%arg0: !tt.ptr<bf16> {tt.divisibility = 16 : i32} loc("/home/vllm/.cache/vllm/torch_compile_cache/51fb6da286/rank_0_0/inductor_cache/zf/czfblgicyct7dbaobrfr466qlzquxd4roqhj7g3nsfc2tcfmvhyi.py":19:0), %arg1: !tt.ptr<i64> {tt.divisibility = 16 : i32} loc("/home/vllm/.cache/vllm/torch_compile_cache/51fb6da286/rank_0_0/inductor_cache/zf/czfblgicyct7dbaobrfr466qlzquxd4roqhj7g3nsfc2tcfmvhyi.py":19:0), %arg2: !tt.ptr<bf16> {tt.divisibility = 16 : i32} loc("/home/vllm/.cache/vllm/torch_compile_cache/51fb6da286/rank_0_0/inductor_cache/zf/czfblgicyct7dbaobrfr466qlzquxd4roqhj7g3nsfc2tcfmvhyi.py":19:0), %arg3: !tt.ptr<bf16> {tt.divisibility = 16 : i32} loc("/home/vllm/.cache/vllm/torch_compile_cache/51fb6da286/rank_0_0/inductor_cache/zf/czfblgicyct7dbaobrfr466qlzquxd4roqhj7g3nsfc2tcfmvhyi.py":19:0), %arg4: i32 {tt.divisibility = 16 : i32} loc("/home/vllm/.cache/vllm/torch_compile_cache/51fb6da286/rank_0_0/inductor_cache/zf/czfblgicyct7dbaobrfr466qlzquxd4roqhj7g3nsfc2tcfmvhyi.py":19:0)) attributes {noinline = false} {
    %cst = arith.constant dense<131072> : tensor<1024xi64> loc(#loc1)
    %cst_0 = arith.constant dense<0> : tensor<1024xi64> loc(#loc1)
    %cst_1 = arith.constant dense<0.000000e+00> : tensor<1024xbf16> loc(#loc1)
    %cst_2 = arith.constant dense<-64> : tensor<1024xi32> loc(#loc1)
    %cst_3 = arith.constant dense<4160> : tensor<1024xi32> loc(#loc1)
    %cst_4 = arith.constant dense<128> : tensor<1024xi64> loc(#loc1)
    %cst_5 = arith.constant dense<0.000000e+00> : tensor<1024xf32> loc(#loc1)
    %cst_6 = arith.constant dense<6144> : tensor<1024xi32> loc(#loc1)
    %cst_7 = arith.constant dense<4096> : tensor<1024xi32> loc(#loc1)
    %cst_8 = arith.constant dense<64> : tensor<1024xi64> loc(#loc1)
    %cst_9 = arith.constant dense<1024> : tensor<1024xi32> loc(#loc1)
    %cst_10 = arith.constant dense<8> : tensor<1024xi32> loc(#loc1)
    %cst_11 = arith.constant dense<128> : tensor<1024xi32> loc(#loc1)
    %c1024_i32 = arith.constant 1024 : i32 loc(#loc1)
    %0 = tt.get_program_id x : i32 loc(#loc2)
    %1 = arith.muli %0, %c1024_i32 : i32 loc(#loc3)
    %2 = tt.make_range {end = 1024 : i32, start = 0 : i32} : tensor<1024xi32> loc(#loc4)
    %3 = tt.splat %1 : i32 -> tensor<1024xi32> loc(#loc5)
    %4 = arith.addi %3, %2 : tensor<1024xi32> loc(#loc5)
    %5 = tt.splat %arg4 : i32 -> tensor<1024xi32> loc(#loc6)
    %6 = arith.cmpi slt, %4, %5 : tensor<1024xi32> loc(#loc6)
    %7 = arith.remsi %4, %cst_11 : tensor<1024xi32> loc(#loc7)
    %8 = arith.divsi %4, %cst_11 : tensor<1024xi32> loc(#loc8)
    %9 = arith.remsi %8, %cst_10 : tensor<1024xi32> loc(#loc9)
    %10 = arith.divsi %4, %cst_9 : tensor<1024xi32> loc(#loc10)
    %11 = arith.extsi %7 : tensor<1024xi32> to tensor<1024xi64> loc(#loc11)
    %12 = arith.cmpi slt, %11, %cst_8 : tensor<1024xi64> loc(#loc11)
    %13 = arith.muli %9, %cst_11 : tensor<1024xi32> loc(#loc12)
    %14 = arith.addi %13, %cst_7 : tensor<1024xi32> loc(#loc13)
    %15 = arith.muli %10, %cst_6 : tensor<1024xi32> loc(#loc14)
    %16 = arith.addi %14, %15 : tensor<1024xi32> loc(#loc15)
    %17 = arith.addi %16, %7 : tensor<1024xi32> loc(#loc16)
    %18 = tt.splat %arg0 : !tt.ptr<bf16> -> tensor<1024x!tt.ptr<bf16>> loc(#loc17)
    %19 = tt.addptr %18, %17 : tensor<1024x!tt.ptr<bf16>>, tensor<1024xi32> loc(#loc17)
    %20 = arith.andi %6, %12 : tensor<1024xi1> loc(#loc18)
    %21 = tt.load %19, %20, %cst_1 evictionPolicy = evict_last : tensor<1024x!tt.ptr<bf16>> loc(#loc19)
    %22 = arith.extf %21 : tensor<1024xbf16> to tensor<1024xf32> loc(#loc20)
    %23 = tt.splat %arg1 : !tt.ptr<i64> -> tensor<1024x!tt.ptr<i64>> loc(#loc21)
    %24 = tt.addptr %23, %10 : tensor<1024x!tt.ptr<i64>>, tensor<1024xi32> loc(#loc21)
    %25 = tt.load %24, %20, %cst_0 evictionPolicy = evict_last : tensor<1024x!tt.ptr<i64>> loc(#loc22)
    %26 = arith.addi %25, %cst : tensor<1024xi64> loc(#loc23)
    %27 = arith.cmpi slt, %25, %cst_0 : tensor<1024xi64> loc(#loc24)
    %28 = arith.select %27, %26, %25 : tensor<1024xi1>, tensor<1024xi64> loc(#loc25)
    %29 = arith.muli %28, %cst_4 : tensor<1024xi64> loc(#loc26)
    %30 = arith.addi %29, %11 : tensor<1024xi64> loc(#loc27)
    %31 = tt.splat %arg2 : !tt.ptr<bf16> -> tensor<1024x!tt.ptr<bf16>> loc(#loc28)
    %32 = tt.addptr %31, %30 : tensor<1024x!tt.ptr<bf16>>, tensor<1024xi64> loc(#loc28)
    %33 = tt.load %32, %20, %cst_1 evictionPolicy = evict_last : tensor<1024x!tt.ptr<bf16>> loc(#loc29)
    %34 = arith.extf %33 : tensor<1024xbf16> to tensor<1024xf32> loc(#loc30)
    %35 = arith.mulf %22, %34 : tensor<1024xf32> loc(#loc31)
    %36 = arith.addi %13, %cst_3 : tensor<1024xi32> loc(#loc32)
    %37 = arith.addi %36, %15 : tensor<1024xi32> loc(#loc33)
    %38 = arith.addi %37, %7 : tensor<1024xi32> loc(#loc34)
    %39 = tt.addptr %18, %38 : tensor<1024x!tt.ptr<bf16>>, tensor<1024xi32> loc(#loc35)
    %40 = tt.load %39, %20, %cst_1 evictionPolicy = evict_last : tensor<1024x!tt.ptr<bf16>> loc(#loc36)
    %41 = arith.extf %40 : tensor<1024xbf16> to tensor<1024xf32> loc(#loc37)
    %42 = arith.addi %29, %cst_8 : tensor<1024xi64> loc(#loc38)
    %43 = arith.addi %42, %11 : tensor<1024xi64> loc(#loc39)
    %44 = tt.addptr %31, %43 : tensor<1024x!tt.ptr<bf16>>, tensor<1024xi64> loc(#loc40)
    %45 = tt.load %44, %20, %cst_1 evictionPolicy = evict_last : tensor<1024x!tt.ptr<bf16>> loc(#loc41)
    %46 = arith.extf %45 : tensor<1024xbf16> to tensor<1024xf32> loc(#loc42)
    %47 = arith.mulf %41, %46 : tensor<1024xf32> loc(#loc43)
    %48 = arith.subf %35, %47 : tensor<1024xf32> loc(#loc44)
    %49 = arith.cmpi sge, %11, %cst_8 : tensor<1024xi64> loc(#loc45)
    %50 = arith.addi %7, %cst_2 : tensor<1024xi32> loc(#loc46)
    %51 = arith.addi %37, %50 : tensor<1024xi32> loc(#loc47)
    %52 = tt.addptr %18, %51 : tensor<1024x!tt.ptr<bf16>>, tensor<1024xi32> loc(#loc48)
    %53 = arith.andi %6, %49 : tensor<1024xi1> loc(#loc49)
    %54 = tt.load %52, %53, %cst_1 evictionPolicy = evict_last : tensor<1024x!tt.ptr<bf16>> loc(#loc50)
    %55 = arith.extf %54 : tensor<1024xbf16> to tensor<1024xf32> loc(#loc51)
    %56 = tt.load %24, %53, %cst_0 evictionPolicy = evict_last : tensor<1024x!tt.ptr<i64>> loc(#loc52)
    %57 = arith.addi %56, %cst : tensor<1024xi64> loc(#loc53)
    %58 = arith.cmpi slt, %56, %cst_0 : tensor<1024xi64> loc(#loc54)
    %59 = arith.select %58, %57, %56 : tensor<1024xi1>, tensor<1024xi64> loc(#loc55)
    %60 = arith.muli %59, %cst_4 : tensor<1024xi64> loc(#loc56)
    %61 = arith.extsi %50 : tensor<1024xi32> to tensor<1024xi64> loc(#loc57)
    %62 = arith.addi %60, %61 : tensor<1024xi64> loc(#loc57)
    %63 = tt.addptr %31, %62 : tensor<1024x!tt.ptr<bf16>>, tensor<1024xi64> loc(#loc58)
    %64 = tt.load %63, %53, %cst_1 evictionPolicy = evict_last : tensor<1024x!tt.ptr<bf16>> loc(#loc59)
    %65 = arith.extf %64 : tensor<1024xbf16> to tensor<1024xf32> loc(#loc60)
    %66 = arith.mulf %55, %65 : tensor<1024xf32> loc(#loc61)
    %67 = arith.addi %16, %50 : tensor<1024xi32> loc(#loc62)
    %68 = tt.addptr %18, %67 : tensor<1024x!tt.ptr<bf16>>, tensor<1024xi32> loc(#loc63)
    %69 = tt.load %68, %53, %cst_1 evictionPolicy = evict_last : tensor<1024x!tt.ptr<bf16>> loc(#loc64)
    %70 = arith.extf %69 : tensor<1024xbf16> to tensor<1024xf32> loc(#loc65)
    %71 = arith.addi %60, %cst_8 : tensor<1024xi64> loc(#loc66)
    %72 = arith.addi %71, %61 : tensor<1024xi64> loc(#loc67)
    %73 = tt.addptr %31, %72 : tensor<1024x!tt.ptr<bf16>>, tensor<1024xi64> loc(#loc68)
    %74 = tt.load %73, %53, %cst_1 evictionPolicy = evict_last : tensor<1024x!tt.ptr<bf16>> loc(#loc69)
    %75 = arith.extf %74 : tensor<1024xbf16> to tensor<1024xf32> loc(#loc70)
    %76 = arith.mulf %70, %75 : tensor<1024xf32> loc(#loc71)
    %77 = arith.addf %66, %76 : tensor<1024xf32> loc(#loc72)
    %78 = arith.select %49, %77, %cst_5 : tensor<1024xi1>, tensor<1024xf32> loc(#loc73)
    %79 = arith.select %12, %48, %78 : tensor<1024xi1>, tensor<1024xf32> loc(#loc79)
    %80 = tt.splat %arg3 : !tt.ptr<bf16> -> tensor<1024x!tt.ptr<bf16>> loc(#loc76)
    %81 = tt.addptr %80, %4 : tensor<1024x!tt.ptr<bf16>>, tensor<1024xi32> loc(#loc76)
    %82 = arith.truncf %79 : tensor<1024xf32> to tensor<1024xbf16> loc(#loc77)
    tt.store %81, %82, %6 : tensor<1024x!tt.ptr<bf16>> loc(#loc77)
    tt.return loc(#loc78)
  } loc(#loc)
} loc(#loc)
#loc1 = loc(unknown)
#loc2 = loc("/home/vllm/.cache/vllm/torch_compile_cache/51fb6da286/rank_0_0/inductor_cache/zf/czfblgicyct7dbaobrfr466qlzquxd4roqhj7g3nsfc2tcfmvhyi.py":20:28)
#loc3 = loc("/home/vllm/.cache/vllm/torch_compile_cache/51fb6da286/rank_0_0/inductor_cache/zf/czfblgicyct7dbaobrfr466qlzquxd4roqhj7g3nsfc2tcfmvhyi.py":20:33)
#loc4 = loc("/home/vllm/.cache/vllm/torch_compile_cache/51fb6da286/rank_0_0/inductor_cache/zf/czfblgicyct7dbaobrfr466qlzquxd4roqhj7g3nsfc2tcfmvhyi.py":21:36)
#loc5 = loc("/home/vllm/.cache/vllm/torch_compile_cache/51fb6da286/rank_0_0/inductor_cache/zf/czfblgicyct7dbaobrfr466qlzquxd4roqhj7g3nsfc2tcfmvhyi.py":21:23)
#loc6 = loc("/home/vllm/.cache/vllm/torch_compile_cache/51fb6da286/rank_0_0/inductor_cache/zf/czfblgicyct7dbaobrfr466qlzquxd4roqhj7g3nsfc2tcfmvhyi.py":22:21)
#loc7 = loc("/home/vllm/.cache/vllm/torch_compile_cache/51fb6da286/rank_0_0/inductor_cache/zf/czfblgicyct7dbaobrfr466qlzquxd4roqhj7g3nsfc2tcfmvhyi.py":23:19)
#loc8 = loc("/home/vllm/.cache/vllm/torch_compile_cache/51fb6da286/rank_0_0/inductor_cache/zf/czfblgicyct7dbaobrfr466qlzquxd4roqhj7g3nsfc2tcfmvhyi.py":24:21)
#loc9 = loc("/home/vllm/.cache/vllm/torch_compile_cache/51fb6da286/rank_0_0/inductor_cache/zf/czfblgicyct7dbaobrfr466qlzquxd4roqhj7g3nsfc2tcfmvhyi.py":24:28)
#loc10 = loc("/home/vllm/.cache/vllm/torch_compile_cache/51fb6da286/rank_0_0/inductor_cache/zf/czfblgicyct7dbaobrfr466qlzquxd4roqhj7g3nsfc2tcfmvhyi.py":25:19)
#loc11 = loc("/home/vllm/.cache/vllm/torch_compile_cache/51fb6da286/rank_0_0/inductor_cache/zf/czfblgicyct7dbaobrfr466qlzquxd4roqhj7g3nsfc2tcfmvhyi.py":31:18)
#loc12 = loc("/home/vllm/.cache/vllm/torch_compile_cache/51fb6da286/rank_0_0/inductor_cache/zf/czfblgicyct7dbaobrfr466qlzquxd4roqhj7g3nsfc2tcfmvhyi.py":33:41)
#loc13 = loc("/home/vllm/.cache/vllm/torch_compile_cache/51fb6da286/rank_0_0/inductor_cache/zf/czfblgicyct7dbaobrfr466qlzquxd4roqhj7g3nsfc2tcfmvhyi.py":33:37)
#loc14 = loc("/home/vllm/.cache/vllm/torch_compile_cache/51fb6da286/rank_0_0/inductor_cache/zf/czfblgicyct7dbaobrfr466qlzquxd4roqhj7g3nsfc2tcfmvhyi.py":33:51)
#loc15 = loc("/home/vllm/.cache/vllm/torch_compile_cache/51fb6da286/rank_0_0/inductor_cache/zf/czfblgicyct7dbaobrfr466qlzquxd4roqhj7g3nsfc2tcfmvhyi.py":33:46)
#loc16 = loc("/home/vllm/.cache/vllm/torch_compile_cache/51fb6da286/rank_0_0/inductor_cache/zf/czfblgicyct7dbaobrfr466qlzquxd4roqhj7g3nsfc2tcfmvhyi.py":33:57)
#loc17 = loc("/home/vllm/.cache/vllm/torch_compile_cache/51fb6da286/rank_0_0/inductor_cache/zf/czfblgicyct7dbaobrfr466qlzquxd4roqhj7g3nsfc2tcfmvhyi.py":33:30)
#loc18 = loc("/home/vllm/.cache/vllm/torch_compile_cache/51fb6da286/rank_0_0/inductor_cache/zf/czfblgicyct7dbaobrfr466qlzquxd4roqhj7g3nsfc2tcfmvhyi.py":33:71)
#loc19 = loc("/home/vllm/.cache/vllm/torch_compile_cache/51fb6da286/rank_0_0/inductor_cache/zf/czfblgicyct7dbaobrfr466qlzquxd4roqhj7g3nsfc2tcfmvhyi.py":33:63)
#loc20 = loc("/home/vllm/.cache/vllm/torch_compile_cache/51fb6da286/rank_0_0/inductor_cache/zf/czfblgicyct7dbaobrfr466qlzquxd4roqhj7g3nsfc2tcfmvhyi.py":33:121)
#loc21 = loc("/home/vllm/.cache/vllm/torch_compile_cache/51fb6da286/rank_0_0/inductor_cache/zf/czfblgicyct7dbaobrfr466qlzquxd4roqhj7g3nsfc2tcfmvhyi.py":34:30)
#loc22 = loc("/home/vllm/.cache/vllm/torch_compile_cache/51fb6da286/rank_0_0/inductor_cache/zf/czfblgicyct7dbaobrfr466qlzquxd4roqhj7g3nsfc2tcfmvhyi.py":34:35)
#loc23 = loc("/home/vllm/.cache/vllm/torch_compile_cache/51fb6da286/rank_0_0/inductor_cache/zf/czfblgicyct7dbaobrfr466qlzquxd4roqhj7g3nsfc2tcfmvhyi.py":36:18)
#loc24 = loc("/home/vllm/.cache/vllm/torch_compile_cache/51fb6da286/rank_0_0/inductor_cache/zf/czfblgicyct7dbaobrfr466qlzquxd4roqhj7g3nsfc2tcfmvhyi.py":37:19)
#loc25 = loc("/home/vllm/.cache/vllm/torch_compile_cache/51fb6da286/rank_0_0/inductor_cache/zf/czfblgicyct7dbaobrfr466qlzquxd4roqhj7g3nsfc2tcfmvhyi.py":38:34)
#loc26 = loc("/home/vllm/.cache/vllm/torch_compile_cache/51fb6da286/rank_0_0/inductor_cache/zf/czfblgicyct7dbaobrfr466qlzquxd4roqhj7g3nsfc2tcfmvhyi.py":40:35)
#loc27 = loc("/home/vllm/.cache/vllm/torch_compile_cache/51fb6da286/rank_0_0/inductor_cache/zf/czfblgicyct7dbaobrfr466qlzquxd4roqhj7g3nsfc2tcfmvhyi.py":40:44)
#loc28 = loc("/home/vllm/.cache/vllm/torch_compile_cache/51fb6da286/rank_0_0/inductor_cache/zf/czfblgicyct7dbaobrfr466qlzquxd4roqhj7g3nsfc2tcfmvhyi.py":40:31)
#loc29 = loc("/home/vllm/.cache/vllm/torch_compile_cache/51fb6da286/rank_0_0/inductor_cache/zf/czfblgicyct7dbaobrfr466qlzquxd4roqhj7g3nsfc2tcfmvhyi.py":40:50)
#loc30 = loc("/home/vllm/.cache/vllm/torch_compile_cache/51fb6da286/rank_0_0/inductor_cache/zf/czfblgicyct7dbaobrfr466qlzquxd4roqhj7g3nsfc2tcfmvhyi.py":40:108)
#loc31 = loc("/home/vllm/.cache/vllm/torch_compile_cache/51fb6da286/rank_0_0/inductor_cache/zf/czfblgicyct7dbaobrfr466qlzquxd4roqhj7g3nsfc2tcfmvhyi.py":41:19)
#loc32 = loc("/home/vllm/.cache/vllm/torch_compile_cache/51fb6da286/rank_0_0/inductor_cache/zf/czfblgicyct7dbaobrfr466qlzquxd4roqhj7g3nsfc2tcfmvhyi.py":42:38)
#loc33 = loc("/home/vllm/.cache/vllm/torch_compile_cache/51fb6da286/rank_0_0/inductor_cache/zf/czfblgicyct7dbaobrfr466qlzquxd4roqhj7g3nsfc2tcfmvhyi.py":42:47)
#loc34 = loc("/home/vllm/.cache/vllm/torch_compile_cache/51fb6da286/rank_0_0/inductor_cache/zf/czfblgicyct7dbaobrfr466qlzquxd4roqhj7g3nsfc2tcfmvhyi.py":42:58)
#loc35 = loc("/home/vllm/.cache/vllm/torch_compile_cache/51fb6da286/rank_0_0/inductor_cache/zf/czfblgicyct7dbaobrfr466qlzquxd4roqhj7g3nsfc2tcfmvhyi.py":42:31)
#loc36 = loc("/home/vllm/.cache/vllm/torch_compile_cache/51fb6da286/rank_0_0/inductor_cache/zf/czfblgicyct7dbaobrfr466qlzquxd4roqhj7g3nsfc2tcfmvhyi.py":42:64)
#loc37 = loc("/home/vllm/.cache/vllm/torch_compile_cache/51fb6da286/rank_0_0/inductor_cache/zf/czfblgicyct7dbaobrfr466qlzquxd4roqhj7g3nsfc2tcfmvhyi.py":42:122)
#loc38 = loc("/home/vllm/.cache/vllm/torch_compile_cache/51fb6da286/rank_0_0/inductor_cache/zf/czfblgicyct7dbaobrfr466qlzquxd4roqhj7g3nsfc2tcfmvhyi.py":43:36)
#loc39 = loc("/home/vllm/.cache/vllm/torch_compile_cache/51fb6da286/rank_0_0/inductor_cache/zf/czfblgicyct7dbaobrfr466qlzquxd4roqhj7g3nsfc2tcfmvhyi.py":43:49)
#loc40 = loc("/home/vllm/.cache/vllm/torch_compile_cache/51fb6da286/rank_0_0/inductor_cache/zf/czfblgicyct7dbaobrfr466qlzquxd4roqhj7g3nsfc2tcfmvhyi.py":43:31)
#loc41 = loc("/home/vllm/.cache/vllm/torch_compile_cache/51fb6da286/rank_0_0/inductor_cache/zf/czfblgicyct7dbaobrfr466qlzquxd4roqhj7g3nsfc2tcfmvhyi.py":43:55)
#loc42 = loc("/home/vllm/.cache/vllm/torch_compile_cache/51fb6da286/rank_0_0/inductor_cache/zf/czfblgicyct7dbaobrfr466qlzquxd4roqhj7g3nsfc2tcfmvhyi.py":43:113)
#loc43 = loc("/home/vllm/.cache/vllm/torch_compile_cache/51fb6da286/rank_0_0/inductor_cache/zf/czfblgicyct7dbaobrfr466qlzquxd4roqhj7g3nsfc2tcfmvhyi.py":44:20)
#loc44 = loc("/home/vllm/.cache/vllm/torch_compile_cache/51fb6da286/rank_0_0/inductor_cache/zf/czfblgicyct7dbaobrfr466qlzquxd4roqhj7g3nsfc2tcfmvhyi.py":45:20)
#loc45 = loc("/home/vllm/.cache/vllm/torch_compile_cache/51fb6da286/rank_0_0/inductor_cache/zf/czfblgicyct7dbaobrfr466qlzquxd4roqhj7g3nsfc2tcfmvhyi.py":48:20)
#loc46 = loc("/home/vllm/.cache/vllm/torch_compile_cache/51fb6da286/rank_0_0/inductor_cache/zf/czfblgicyct7dbaobrfr466qlzquxd4roqhj7g3nsfc2tcfmvhyi.py":52:66)
#loc47 = loc("/home/vllm/.cache/vllm/torch_compile_cache/51fb6da286/rank_0_0/inductor_cache/zf/czfblgicyct7dbaobrfr466qlzquxd4roqhj7g3nsfc2tcfmvhyi.py":52:58)
#loc48 = loc("/home/vllm/.cache/vllm/torch_compile_cache/51fb6da286/rank_0_0/inductor_cache/zf/czfblgicyct7dbaobrfr466qlzquxd4roqhj7g3nsfc2tcfmvhyi.py":52:31)
#loc49 = loc("/home/vllm/.cache/vllm/torch_compile_cache/51fb6da286/rank_0_0/inductor_cache/zf/czfblgicyct7dbaobrfr466qlzquxd4roqhj7g3nsfc2tcfmvhyi.py":52:80)
#loc50 = loc("/home/vllm/.cache/vllm/torch_compile_cache/51fb6da286/rank_0_0/inductor_cache/zf/czfblgicyct7dbaobrfr466qlzquxd4roqhj7g3nsfc2tcfmvhyi.py":52:72)
#loc51 = loc("/home/vllm/.cache/vllm/torch_compile_cache/51fb6da286/rank_0_0/inductor_cache/zf/czfblgicyct7dbaobrfr466qlzquxd4roqhj7g3nsfc2tcfmvhyi.py":52:131)
#loc52 = loc("/home/vllm/.cache/vllm/torch_compile_cache/51fb6da286/rank_0_0/inductor_cache/zf/czfblgicyct7dbaobrfr466qlzquxd4roqhj7g3nsfc2tcfmvhyi.py":53:36)
#loc53 = loc("/home/vllm/.cache/vllm/torch_compile_cache/51fb6da286/rank_0_0/inductor_cache/zf/czfblgicyct7dbaobrfr466qlzquxd4roqhj7g3nsfc2tcfmvhyi.py":55:20)
#loc54 = loc("/home/vllm/.cache/vllm/torch_compile_cache/51fb6da286/rank_0_0/inductor_cache/zf/czfblgicyct7dbaobrfr466qlzquxd4roqhj7g3nsfc2tcfmvhyi.py":56:20)
#loc55 = loc("/home/vllm/.cache/vllm/torch_compile_cache/51fb6da286/rank_0_0/inductor_cache/zf/czfblgicyct7dbaobrfr466qlzquxd4roqhj7g3nsfc2tcfmvhyi.py":57:35)
#loc56 = loc("/home/vllm/.cache/vllm/torch_compile_cache/51fb6da286/rank_0_0/inductor_cache/zf/czfblgicyct7dbaobrfr466qlzquxd4roqhj7g3nsfc2tcfmvhyi.py":59:35)
#loc57 = loc("/home/vllm/.cache/vllm/torch_compile_cache/51fb6da286/rank_0_0/inductor_cache/zf/czfblgicyct7dbaobrfr466qlzquxd4roqhj7g3nsfc2tcfmvhyi.py":59:44)
#loc58 = loc("/home/vllm/.cache/vllm/torch_compile_cache/51fb6da286/rank_0_0/inductor_cache/zf/czfblgicyct7dbaobrfr466qlzquxd4roqhj7g3nsfc2tcfmvhyi.py":59:31)
#loc59 = loc("/home/vllm/.cache/vllm/torch_compile_cache/51fb6da286/rank_0_0/inductor_cache/zf/czfblgicyct7dbaobrfr466qlzquxd4roqhj7g3nsfc2tcfmvhyi.py":59:58)
#loc60 = loc("/home/vllm/.cache/vllm/torch_compile_cache/51fb6da286/rank_0_0/inductor_cache/zf/czfblgicyct7dbaobrfr466qlzquxd4roqhj7g3nsfc2tcfmvhyi.py":59:117)
#loc61 = loc("/home/vllm/.cache/vllm/torch_compile_cache/51fb6da286/rank_0_0/inductor_cache/zf/czfblgicyct7dbaobrfr466qlzquxd4roqhj7g3nsfc2tcfmvhyi.py":60:20)
#loc62 = loc("/home/vllm/.cache/vllm/torch_compile_cache/51fb6da286/rank_0_0/inductor_cache/zf/czfblgicyct7dbaobrfr466qlzquxd4roqhj7g3nsfc2tcfmvhyi.py":61:58)
#loc63 = loc("/home/vllm/.cache/vllm/torch_compile_cache/51fb6da286/rank_0_0/inductor_cache/zf/czfblgicyct7dbaobrfr466qlzquxd4roqhj7g3nsfc2tcfmvhyi.py":61:31)
#loc64 = loc("/home/vllm/.cache/vllm/torch_compile_cache/51fb6da286/rank_0_0/inductor_cache/zf/czfblgicyct7dbaobrfr466qlzquxd4roqhj7g3nsfc2tcfmvhyi.py":61:72)
#loc65 = loc("/home/vllm/.cache/vllm/torch_compile_cache/51fb6da286/rank_0_0/inductor_cache/zf/czfblgicyct7dbaobrfr466qlzquxd4roqhj7g3nsfc2tcfmvhyi.py":61:131)
#loc66 = loc("/home/vllm/.cache/vllm/torch_compile_cache/51fb6da286/rank_0_0/inductor_cache/zf/czfblgicyct7dbaobrfr466qlzquxd4roqhj7g3nsfc2tcfmvhyi.py":62:36)
#loc67 = loc("/home/vllm/.cache/vllm/torch_compile_cache/51fb6da286/rank_0_0/inductor_cache/zf/czfblgicyct7dbaobrfr466qlzquxd4roqhj7g3nsfc2tcfmvhyi.py":62:49)
#loc68 = loc("/home/vllm/.cache/vllm/torch_compile_cache/51fb6da286/rank_0_0/inductor_cache/zf/czfblgicyct7dbaobrfr466qlzquxd4roqhj7g3nsfc2tcfmvhyi.py":62:31)
#loc69 = loc("/home/vllm/.cache/vllm/torch_compile_cache/51fb6da286/rank_0_0/inductor_cache/zf/czfblgicyct7dbaobrfr466qlzquxd4roqhj7g3nsfc2tcfmvhyi.py":62:63)
#loc70 = loc("/home/vllm/.cache/vllm/torch_compile_cache/51fb6da286/rank_0_0/inductor_cache/zf/czfblgicyct7dbaobrfr466qlzquxd4roqhj7g3nsfc2tcfmvhyi.py":62:122)
#loc71 = loc("/home/vllm/.cache/vllm/torch_compile_cache/51fb6da286/rank_0_0/inductor_cache/zf/czfblgicyct7dbaobrfr466qlzquxd4roqhj7g3nsfc2tcfmvhyi.py":63:20)
#loc72 = loc("/home/vllm/.cache/vllm/torch_compile_cache/51fb6da286/rank_0_0/inductor_cache/zf/czfblgicyct7dbaobrfr466qlzquxd4roqhj7g3nsfc2tcfmvhyi.py":64:20)
#loc73 = loc("/home/vllm/.cache/vllm/torch_compile_cache/51fb6da286/rank_0_0/inductor_cache/zf/czfblgicyct7dbaobrfr466qlzquxd4roqhj7g3nsfc2tcfmvhyi.py":66:35)
#loc74 = loc("/home/vllm/.cache/vllm/torch_compile_cache/51fb6da286/rank_0_0/inductor_cache/zf/czfblgicyct7dbaobrfr466qlzquxd4roqhj7g3nsfc2tcfmvhyi.py":67:34)
#loc75 = loc("/home/vllm/.cache/vllm/torch_compile_cache/51fb6da286/rank_0_0/inductor_cache/zf/czfblgicyct7dbaobrfr466qlzquxd4roqhj7g3nsfc2tcfmvhyi.py":47:34)
#loc76 = loc("/home/vllm/.cache/vllm/torch_compile_cache/51fb6da286/rank_0_0/inductor_cache/zf/czfblgicyct7dbaobrfr466qlzquxd4roqhj7g3nsfc2tcfmvhyi.py":68:25)
#loc77 = loc("/home/vllm/.cache/vllm/torch_compile_cache/51fb6da286/rank_0_0/inductor_cache/zf/czfblgicyct7dbaobrfr466qlzquxd4roqhj7g3nsfc2tcfmvhyi.py":68:37)
#loc78 = loc("/home/vllm/.cache/vllm/torch_compile_cache/51fb6da286/rank_0_0/inductor_cache/zf/czfblgicyct7dbaobrfr466qlzquxd4roqhj7g3nsfc2tcfmvhyi.py":68:4)
#loc79 = loc(fused[#loc74, #loc75])
